checkpoints/maneuvering_easy/best_params.npy (npy, 43920 bytes, 1 tensors)

array f8 [5474]
00000000: 37b1 2ef9 f8ca b2bf 281c 972e 4689 c4bf
00000010: 1a22 f775 61a5 adbf 0ecf 6c20 2972 88bf
00000020: 0ea4 8f49 0e4d b63f a188 94e8 d9dd c3bf
00000030: 6565 f311 ab9d b53f 3e47 2bdf 2c59 a73f
00000040: 1310 07ec 4f1d c23f c3f6 6f4a bb74 c93f
00000050: 8eb2 10dc 3915 bf3f 29cb 27f2 f6d2 3fbf
00000060: 14e4 63ac 5ced 96bf d79f 612f 5d08 a03f
00000070: 52f6 6571 4c20 903f bbc8 8e14 d8be a23f
00000080: 277e 3500 4539 c73f f9bd 5462 c140 c6bf
00000090: 7836 8154 ceee c33f de9d 6de5 48c1 b3bf
000000a0: 36f9 8479 3ff1 c13f 3cda 4435 582d c2bf
000000b0: b83a 4f72 ed03 85bf 5592 24dd 4655 b3bf
000000c0: aa40 9461 f2af c13f cf21 3732 a3b5 c53f
000000d0: b51b 4e33 4d60 b13f f850 ba51 0000 c93f
000000e0: e04d 4128 b6be 63bf cb31 b6de 335b c83f
000000f0: 69a7 ea72 394c c4bf 0dfc 9183 060e c43f
00000100: 300a 4d8c 11b1 853f c593 f981 9f7a c1bf
00000110: 3d04 8b24 d03d c7bf a8c8 59ed 205a 96bf
00000120: 3865 3648 4551 7a3f 0b8c b287 b11f c8bf
00000130: 28a8 fff0 c8d6 bebf e7d7 1a2d cbd5 b53f
00000140: df90 f0bd d5fb c13f 43ca e5e2 98bf a03f
00000150: e019 d368 20af b7bf 59ae 81b8 7ba8 a83f
00000160: 0f89 c1e7 73be c3bf c815 5768 10b1 8f3f
00000170: da82 3081 e169 c83f 3430 7da6 f0bf b3bf
00000180: c545 b27c 27f2 a33f b8ad a4d2 5d7b b83f
00000190: 7e2c f798 3944 82bf a464 3fff eae2 afbf
000001a0: 34ce 34b9 1436 9ebf 6241 2643 ccd2 b13f
000001b0: f78e ef63 7e09 c3bf 22c5 c890 59be c33f
000001c0: d2a3 d7e2 13e2 74bf cd3c 0693 b600 c43f
000001d0: 54ed 125e 7008 aebf 3198 c205 87b6 b7bf
000001e0: b68a e152 2128 8abf 43ee 399e 4651 bbbf
000001f0: 75e8 242e 8d48 c03f caf7 9767 7df5 a1bf
00000200: b544 b689 46ae c4bf b083 a931 3db7 c2bf
00000210: 98af 47ae 1162 b03f ca79 c345 e223 b53f
00000220: b399 0586 5db6 b7bf ca75 ff37 d03b a3bf
00000230: 02d2 50fc bf4e c7bf 3be7 b022 4a50 c3bf
00000240: b142 c5f6 ce5f b03f 9194 3861 5545 b13f
00000250: aa37 38a4 2e68 b03f a9ca 2eae b1ed ad3f
00000260: 40e7 156d 4998 b73f e3b1 843d 8b9c c83f
00000270: f5d5 2b89 5b41 c7bf 6759 2bd3 6a43 a73f
00000280: 610c 31d7 7438 a2bf d0c1 22f4 11b9 b33f
00000290: f557 8be1 250c 913f 8a50 76e2 9a01 c33f
000002a0: 4807 17fe d6f7 9b3f feb3 293a e6b0 c73f
000002b0: 2b48 a4e9 bf13 c73f 384a 93c4 e002 bf3f
000002c0: c0b4 2e05 3a58 bfbf 976a 496b 33fd b6bf
000002d0: 4e74 3385 c9cf b03f 0f03 4599 1a04 c33f
000002e0: e2ed e0cc d93e c7bf 60d1 6804 adcd a33f
000002f0: 187c bdd6 d479 82bf f79c fb19 e745 ac3f
00000300: 20d5 78bf 77aa b63f 38e2 bebe cd19 b5bf
00000310: b8cb 08c3 3721 ae3f 80bb 9859 96ae b13f
00000320: 2b44 77a5 cb8d a63f 3f4e 76c3 364f bb3f
00000330: cdd6 f54c ced2 c0bf 91c9 b3d5 f3cd b93f
00000340: f06f ed26 5557 ac3f 0d55 7b14 b702 9e3f
00000350: aa9d 73fc cd73 c3bf a414 c619 d9da a53f
00000360: dcc7 7a6a 51c2 96bf dcf2 3d4a 58b7 c1bf
00000370: 36df 8d99 cf1f babf 317e 2299 f32c c43f
00000380: 544b fe54 1d36 bf3f 6f86 314a f995 ab3f
00000390: 54e9 a03f da81 bd3f df01 5539 adb4 b13f
000003a0: 9164 2d5e e8d7 babf e716 2267 b774 c23f
000003b0: a599 f6dc 23da bebf 1abc b20e 125a 9b3f
000003c0: befd b938 078f c33f eb14 9bf3 10a6 c73f
000003d0: ded3 ada3 c9b2 b4bf f8cf c868 4e7e c3bf
000003e0: 7f7c eed9 158b 85bf 8ca3 a179 c593 c2bf
000003f0: a204 aacc 5705 c7bf dce1 9067 ad7e bfbf
00000400: 7922 c3d6 5982 5d3f 5367 b703 9be5 91bf
00000410: b9a5 eec8 4094 c93f f10e d8d9 3374 c6bf
00000420: 549c 6e3f 4bb3 c7bf 74a2 47ee e229 9ebf
00000430: 1aec 34cb e75a b7bf a211 d314 5cc4 c53f
00000440: 220e 5e65 8f62 b63f 92d3 28dd cc84 c93f
00000450: 6beb 01b5 1ceb a73f bf3c c925 b8ce afbf
00000460: 6481 aded 0d7c b63f 88c1 2b87 f83c afbf
00000470: 191c 2e84 e51d 92bf 2e7c d50a ffe7 c53f
00000480: 05a9 5d6b a2ad b33f 73aa 1529 8726 c83f
00000490: e1bf 678e 316d bb3f 4fcb 9a9b f267 a63f
000004a0: 6178 db37 00d9 c2bf 1e26 70b2 b08a b13f
000004b0: 4716 42f2 8fe0 c33f 2a54 477e 3133 95bf
000004c0: 2339 dd6d 5416 abbf 26d6 f850 51ac c83f
000004d0: 3bf1 41e1 db10 c83f 46cd 63de 73f5 c53f
000004e0: 239f d057 0521 b63f 8eed 547e 9b68 b33f
000004f0: 307b 5a2c 5fcc 76bf e34b fa36 8d85 bcbf
00000500: bd7c 72fd 81fe b5bf 1874 b8a9 65b4 c1bf
00000510: 01cd 9749 ed6b b93f 08ae a256 913f b63f
00000520: 88b0 1449 2028 c4bf 5b6c 8e85 5078 98bf
00000530: d2c1 2353 e0f1 b8bf cad8 47fe 2ae6 b4bf
00000540: 8313 b558 d07a c0bf 0b64 88e0 d19d b8bf
00000550: f7e8 db1a 9a61 c43f 3cb8 3a32 1344 c4bf
00000560: c63f afcc 23a9 aebf 187e fa1c f91b bfbf
00000570: 9e90 9226 9b32 91bf 864a 2cbb c050 a83f
00000580: 33fe f55d ad6b 6cbf 2433 8eab cb52 b3bf
00000590: b23b 70b7 e652 b4bf ffbb d47b 8ddd 9abf
000005a0: 4033 62b9 60bb be3f 9bb3 1c78 2393 b2bf
000005b0: adce f342 9535 8d3f 1de3 317c d347 64bf
000005c0: a1be beb7 27b3 c43f 6c4d 9fd2 3b62 b5bf
000005d0: 853e acb3 ae1a bebf e7d0 4c22 575f c13f
000005e0: 4bb0 a3a5 e80d c9bf f574 ab1b fbca c2bf
000005f0: 187f e9c0 90d3 ac3f 21b9 71b8 2b0e 9f3f
00000600: cf25 b879 247f b0bf 9877 23b3 f867 c83f
00000610: 0255 c4f9 2c54 b43f 5b05 a6fe 7cfd 963f
00000620: fb10 017d 1e4a a5bf c708 3dbb 8ef7 c2bf
00000630: ee03 bd17 b573 b0bf 36ca f151 c239 c7bf
00000640: eb6f ad30 f5ef b83f 9ded 6b67 d996 c23f
00000650: f5f3 131b 6abf b3bf 4b48 a577 e455 c1bf
00000660: b84a 0215 d50c 8a3f 09e5 dd9d 8896 c2bf
00000670: 7109 2e15 d9a8 afbf a0c0 5b6a a2db bb3f
00000680: 5fec 7d28 43c6 b03f 1771 b342 b799 c8bf
00000690: a342 46c6 6afb b1bf 1344 0874 fa07 53bf
000006a0: 4c56 4011 761b c9bf 4d4a 0e0d 22a5 c0bf
000006b0: edb7 2d2c 87df c83f 11ce a376 5d38 913f
000006c0: 175a 5d43 ad64 95bf 85de 1217 74a6 c63f
000006d0: 94b0 3478 1610 713f db3f ce20 f46e b0bf
000006e0: c8d9 bb04 db6b c8bf 7904 9f3e f396 a6bf
000006f0: 4552 1e03 ba0e 923f 11f5 47e0 1ced c6bf
00000700: 660a 15c5 a850 af3f 08a1 0d60 96f6 85bf
00000710: 71b7 0a6b ffec b4bf b009 ac7a 225c c23f
00000720: 0c52 5666 659c b43f 4fe9 bd39 4667 c4bf
00000730: d09d 8a9f d969 953f 2d43 a560 3dee c33f
00000740: 7a69 ef06 5368 b03f 7870 c5f4 bba1 a43f
00000750: e7ad e216 dae7 bbbf 2d29 79ed 0d79 ab3f
00000760: 8787 a0b1 1ae1 adbf 74d5 d593 c449 833f
00000770: 35c7 a4c2 af1b 803f bcc3 187f 4381 c7bf
00000780: 4c96 ba8f a6ad c03f 3107 0549 0c4c 9dbf
00000790: dfe9 0908 d100 a5bf 2fcb 5307 d47f a63f
000007a0: bc27 964f d539 903f 621a e51a 8b48 b5bf
000007b0: 3c0c 8bbf bf12 c3bf a88a d4ee 1e5e a5bf
000007c0: 86ba 89a8 e365 a8bf db9d 754d 2046 c5bf
000007d0: 94a8 9275 2de7 c73f 33b7 8b3e c0ac aa3f
000007e0: e000 7dc3 6510 b5bf 5c5d 9ffe d5b5 c13f
000007f0: ee98 3206 c7ab c4bf 6aa2 05af 3bae a1bf
-0.07340961535982592 -0.16043927454868023 -0.05790237965590368 -0.011936494161637803 0.08711327835011692 -0.1552078614850574 0.08443707645655747 0.045602228395763764
0.14151953720841046 0.19887486586224243 0.12141763327299257 -0.00048559693291776396 -0.022389839193213204 0.03131381228814661 0.015748209401399933 0.03661227465581037
0.1814352274914068 -0.1738511781818344 0.15572528005798225 -0.0771680412413995 0.14017480310025981 -0.14200880623839562 -0.010261397410343917 -0.07551997088428071
0.13818197025876106 0.16960563613817078 0.06787569525304955 0.19531253805747162 -0.0024102742918701153 0.19028328299135774 -0.1585761843792242 0.15667802261666033
0.010591637701172635 -0.13655465933257296 -0.18157388481452755 -0.021828188406694565 0.006425161965489416 -0.18846720815517445 -0.12046485790020312 0.08529348231499477
0.14049789213561945 0.032711770722830845 -0.09251596984095256 0.048160425446295015 -0.15424965683184452 0.015474441703996158 0.19073122795182124 -0.07714752258942853
0.03895686528370449 0.09563242333086108 -0.008919191342007911 -0.06227812162223614 -0.029503177455991472 0.06962277068510539 -0.14872722510983014 0.15424651689094399
-0.005098416977014035 0.15627176455425343 -0.058658133968004705 -0.09262889757755556 -0.012771854726627434 -0.10670892107912615 0.1272140956223812 -0.03507606401033987
-0.16156846737115918 -0.14621701168928558 0.06399641518481614 0.0825787945100053 -0.09262642404573888 -0.0375657146794129 -0.18209075756170995 -0.15088774389169565
0.06396192097350696 0.06746419547615036 0.06408969411151469 0.058454086792513245 0.09216746247502972 0.19227734092545665 -0.18168205449880728 0.0454362280631127
-0.035586978214745775 0.07704269609781211 0.01664790333855844 0.14848648126337977 0.027312621363086792 0.18508603897080883 0.1802902117565862 0.12113766478732024
-0.1224399817135291 -0.08980103844934671 0.06567058088281039 0.14856274112573728 -0.18160555366362902 0.03867855719400626 -0.009021437457418499 0.055220815583931264
0.08853863167390275 -0.08242498309017143 0.058847181852250185 0.06907024085442792 0.04405056376311508 0.10667745849632924 -0.13143328435733395 0.10079883544293568
0.0553537950533779 0.029307232499225445 -0.15197157694568136 0.042685303112230316 -0.022225639461517108 -0.1384077417859747 -0.10204789637452624 0.15762181260378008
0.12191947293312683 0.053878584200686024 0.11526264241630219 0.06916315698345653 -0.10485698985339044 0.14418690238760876 -0.1205160536252153 0.026710779330354574
0.15280237455224993 0.18475543875516762 -0.08085308309621506 -0.15229206196238443 -0.010519190514797437 -0.14513462485345163 -0.17985055440297965 -0.12302669313874709
0.001801097615542839 -0.017477438070137307 0.19983682452338572 -0.1754212201777743 -0.18515911671895202 -0.02945665912003155 -0.0912308570013213 0.17005492226429647
0.0874414083937656 0.19936524199297573 0.04671563825191679 -0.06212401829963587 0.0878304200427969 -0.06101204538379351 -0.0176921712805119 0.17114246396065042
0.07686820145832847 0.18867578035436203 0.10713491179171754 0.043761807913503696 -0.14724734046370982 0.06852249485395887 0.15529059723864888 -0.020703099567828932
-0.052904737864638805 0.1927587170954876 0.18801449297814962 0.17155311926726763 0.08644135850829264 0.0758149321963428 -0.00556599785855276 -0.11141283600072387
-0.08591473043132943 -0.13831778323302113 0.09930308386519827 0.08690746655582171 -0.15747455185317372 -0.02389646353877271 -0.09744073896195651 -0.08163708408378337
-0.12874798137104557 -0.09615813953168144 0.15922857581592328 -0.15832748367887628 -0.05988418458548454 -0.12152058560831625 -0.016794609288482414 0.04749109539820488
-0.00346931324719415 -0.0754821103893844 -0.07938997248150662 -0.026235781367343943 0.12004665876356757 -0.07255765612053582 0.014262357812618498 -0.002475655609995532
0.16171738120964554 -0.08353017704148663 -0.11759464155715633 0.13572205710227722 -0.1957369622026611 -0.14681948519766022 0.056301616238441266 0.030327494747717346
-0.06444004031813864 0.19067295786856842 0.07940941903901336 0.02245135597468582 -0.04158110881738427 -0.14817985670567266 -0.06426555470990511 -0.18145016671367536
0.09741146505751856 0.14522855329401532 -0.07713950310785818 -0.1354337295729827 0.01271978826870189 -0.14521892269457506 -0.06183508285086504 0.1088201055206377
0.0655252431733273 -0.1921910358131604 -0.0702425703114025 -0.0011615701515703721 -0.19615054933881237 -0.13003945958606025 0.1943215337482224 0.01681657826061495
-0.020891864048588085 0.1769547569908704 0.00416573311967396 -0.06419301796836356 -0.19079148989813022 -0.04412040843409044 0.01763430255921807 -0.17911110831475033
0.0611622562960477 -0.010724234396278579 -0.08174129832579326 0.1434367274269568 0.080511414990106 -0.15940168208528369 0.020911598551405508 0.15570800036450674
0.06409186286274418 0.04029643404894129 -0.10900652941443632 0.053657946814001135 -0.058358034308425615 0.009418044816565475 0.007865307929566615 -0.1836323137845549
0.13029939668665447 -0.02861041255642433 -0.04102185462120977 0.04394400205082715 0.01584561632402147 -0.08313817412008853 -0.14900967457478653 -0.04173370995910847
-0.04765235359524404 -0.16620258123587814 0.18674247971404567 0.0520992351865587 -0.08228145620978777 0.13836169178714897 -0.16149223139399943 -0.034532418360701936
