checkpoints/harness_1/best_params.npy (npy, 43920 bytes, 1 tensors)

array f8 [5474]
000000 59 f6 0e 3f 49 cc b2 bf f1 e1 a2 8b 76 7f c4 bf
       -0.07342965878975728 -0.16013986414124262
000010 cc c9 d1 0d dd aa c1 3f 5c 5a 4b c8 25 43 88 bf
       0.1380268399694401 -0.011846823859213255
000020 32 a2 88 44 07 4d b6 3f d5 17 e3 19 2b c0 c3 bf
       0.08711285994707721 -0.1543020130540628
000030 d9 6b ef 75 02 79 b5 3f b7 7e b7 a0 71 ff b3 bf
       0.08387771014478974 -0.07811651395558782
000040 fb 6b 73 b8 ba 14 c2 3f 5a 0f 20 ef c7 74 c9 3f
       0.14125761038198434 0.198876373062485
000050 2f f7 19 b4 03 15 bf 3f b9 01 9d 62 ae 11 40 bf
       0.12141440531737822 -0.0004903890123629163
000060 d9 e0 8a 85 6f 70 93 bf ad cb a9 67 16 08 a0 3f
       -0.01898359539583869 0.03131170287533478
000070 24 94 bb 02 a0 2e 90 3f bc be 87 ab da be a2 3f
       0.01580286041907554 0.036612351835967755
000080 c2 77 9d b6 3f 39 c7 3f 7a 5a 5c 40 bf 40 c6 bf
       0.18143459717515326 -0.1738509239446165
000090 17 a5 e7 82 8f f9 c3 3f a8 35 62 ac 43 7c b3 bf
       0.1560534848388577 -0.07611487349114177
0000a0 0a 9f df 4e 66 f2 c1 3f 3c da 44 35 58 2d c2 bf
       0.14020994998212927 -0.14200880623839562
0000b0 c0 9e a3 85 f2 1d bd 3f 71 6e 24 dd 46 55 b3 bf
       0.11373821032213538 -0.0755199708841532
0000c0 a1 d0 79 23 f1 af c1 3f cd f7 3d 2d a3 b5 c5 3f
       0.1381818221303819 0.1696056338222988
0000d0 13 64 44 56 68 61 b1 3f 54 91 aa 3d ec 00 c9 3f
       0.06789257150775567 0.19534066210793333
0000e0 e0 4d 41 28 b6 be 63 bf 3d bb f4 8f 7e 5b c8 3f
       -0.0024102742918701153 0.1902921870145863
0000f0 29 77 61 72 39 4c c4 bf 96 4a 81 6c ff 0d c4 3f
       -0.1585761841296798 0.15667717741105908
000100 30 0a 4d 8c 11 b1 85 3f ca 74 f9 81 9f 7a c1 bf
       0.010591637701172635 -0.13655465933235283
000110 72 38 3e 46 4b 38 c7 bf 95 6c 0e c2 52 57 96 bf
       -0.18140545778118483 -0.02181748685289316
000120 5d 09 b2 9a b9 4c 7a 3f 87 a8 bd 65 a5 1d c8 bf
       0.006420826927867243 -0.18840472667517735
000130 0a fa eb 61 ba d6 be bf ff a4 e3 3c cb d5 b5 3f
       -0.12046399012249523 0.085293485990082
000140 14 67 0b d2 d5 fb c1 3f 72 63 a6 be 27 2e a0 3f
       0.14049790149766095 0.03160213663358648
000150 ed e7 bb 3c 3d b4 b7 bf 07 5a f6 63 7b a8 a8 3f
       -0.0925939820553194 0.048160415604048316
000160 82 77 07 a2 8b bf c3 bf c8 15 57 68 10 b1 8f 3f
       -0.15428300296383318 0.015474441703996158
000170 dc b2 f2 d5 2f 25 c8 3f f5 79 53 33 f7 97 c3 3f
       0.1886348528545544 0.15307512289196237
000180 e9 c0 c6 3e 02 1a a4 3f fd bf b2 9f 4e 7b b8 3f
       0.03926093117058988 0.09563151739962446
000190 c9 8f 6e 25 d3 60 82 bf a4 64 3f ff ea e2 af bf
       -0.008973741130667083 -0.06227812162223614
0001a0 0a 5f 82 28 5b 37 9e bf 66 7a 58 75 a6 5d b6 3f
       -0.02950804171322744 0.0873664890755009
0001b0 a9 fe 09 ec 8a 09 c3 bf 22 c5 c8 90 59 be c3 3f
       -0.1487287189993272 0.15424651689094399
0001c0 2e af 1e ae 31 dd 74 bf 02 e6 c1 5b cd 00 c4 3f
       -0.005093759596927856 0.1562744806322343
0001d0 94 e4 93 b4 4c 32 b0 bf 75 0c 7d 05 87 b6 b7 bf
       -0.06326751145015158 -0.09262889751430399
0001e0 24 7a 0a c3 7a 2e 8a bf 95 1f 72 59 3a 71 bb bf
       -0.012783965184380248 -0.10719647105918136
0001f0 f2 95 b6 e5 93 48 c0 3f 4a fb 97 67 7d f5 a1 bf
       0.12721489635912026 -0.03507606401034609
000200 38 e9 2b 2d e2 bf c4 bf 51 bd d9 c4 0a b6 c2 bf
       -0.16210581975594507 -0.1461804829773237
000210 01 66 80 06 17 63 b0 3f 5a 50 c9 13 e3 23 b5 3f
       0.06401199253777891 0.08257884247842764
000220 30 b4 cc c2 27 b9 b7 bf 1a 07 6d 60 9e 3b a3 bf
       -0.09266899591303068 -0.03756422926973198
000230 b3 e4 8c 75 bf 4e c7 bf 1e ee fd 51 96 2a c2 bf
       -0.18209069480670834 -0.14192465785514313
000240 d2 be d4 31 40 5f b0 3f e2 39 4a 55 58 45 b1 3f
       0.06395341126039547 0.0674643715121657
000250 e4 40 a7 72 84 68 b0 3f 37 5e 76 c9 b1 ed ad 3f
       0.06409480857041988 0.058454089968276106
000260 e3 a9 03 b9 ac 93 b7 3f 7b 8e dc 28 90 9c c8 3f
       0.09209708706808999 0.19227792735283686
000270 f5 d5 2b 89 5b 41 c7 bf c1 27 46 b2 9d 61 a7 3f
       -0.18168205449880728 0.045666625987976335
000280 0b ee 48 f3 71 38 a2 bf 33 d3 06 b1 0c b9 b3 3f
       -0.03558689207826767 0.07704238244953103
000290 18 e7 3e 57 24 0c 91 3f f6 3c fd 69 c7 17 c2 3f
       0.0166478803873594 0.14135067630056825
0002a0 1e d8 7a de 29 d8 9f 3f 08 e3 c0 67 11 a1 c7 3f
       0.03109803600701621 0.18460290495001908
0002b0 12 9d 3b 88 d9 0d c7 3f 0c a7 04 76 a4 cd be 3f
       0.18011016036982902 0.12032535439780306
0002c0 c0 b4 2e 05 3a 58 bf bf 4f 24 9b 32 db fc b6 bf
       -0.1224399817135291 -0.08979578004358867
0002d0 40 ec 02 b5 9c cf b0 3f 5d 78 ce a9 48 04 c3 3f
       0.06566790980552728 0.14856823245367226
0002e0 c5 1e ee b1 16 30 c7 bf a7 b3 44 6e c7 c1 a3 3f
       -0.18115504920955608 0.03858779164361375
0002f0 18 7c bd d6 d4 79 82 bf 68 c8 71 b2 e4 45 ac 3f
       -0.009021437457418499 0.05522074392583037
000300 3d 38 d0 28 28 aa b6 3f aa 0a dd 0f db 19 b5 bf
       0.08853388782901646 -0.08242577683726418
000310 d9 24 71 d1 34 21 ae 3f 80 bb 98 59 96 ae b1 3f
       0.05884709412254958 0.06907024085442792
000320 26 19 1e 2a d2 8d a6 3f 4a 83 3b 7e b5 ae c2 3f
       0.044050758019738276 0.14595669425673413
000330 af d2 d6 9b e8 bc c0 bf 76 e3 d8 ee 9e d7 b9 3f
       -0.13076503381093604 0.10094636279326416
000340 e0 d9 89 ea 8c 69 b1 3f 3a 73 ae 91 7e 02 9e 3f
       0.06801682210957649 0.02930639042061787
000350 66 54 32 8c 69 74 c3 bf 54 6e c1 55 fb 4c a6 3f
       -0.1519901213220322 0.04355607435055889
000360 cb aa 7f 80 e2 c1 96 bf 5b 15 9d 81 5a b7 c1 bf
       -0.022223986714304183 -0.1384080059889737
000370 12 b2 42 91 d0 1f ba bf 0c 08 e9 c9 d0 2c c4 3f
       -0.1020479540481534 0.15761766299152702
000380 52 45 b3 0d 6e 43 ac bf 5f 03 9d d8 d0 b9 aa 3f
       -0.055201949283978494 0.05219891208844873
000390 7b 72 d8 90 cc 81 bd 3f 6f 9d 8c 3a ad b4 b1 3f
       0.11526182686106694 0.06916315726686205
0003a0 dd 77 0b a5 95 d7 ba bf 83 43 d3 01 9b c5 c2 3f
       -0.10485205916799552 0.14665544118045312
0003b0 f2 a5 f7 25 7b ef be bf 83 ed 07 c8 a5 63 9b 3f
       -0.12084169079721344 0.02674731286422861
0003c0 72 db e5 7e b7 92 c3 3f f7 8b 47 ba dd 79 c7 3f
       0.15291494079766782 0.18340655894925792
0003d0 e7 71 a4 9f c9 b2 b4 bf f5 63 2e 81 0a 7d c3 bf
       -0.08085308215635899 -0.15225344951321032
0003e0 61 59 71 da e3 51 75 bf ff 9f 87 8e 5f 87 c1 bf
       -0.005205049564287329 -0.13694376429998553
0003f0 95 eb db 22 59 05 c7 bf 8e f6 09 47 66 86 bf bf
       -0.17985071374991138 -0.12314452394817918
000400 18 16 f2 d3 08 1f 76 3f 37 68 b7 03 9b e5 91 bf
       0.005400690540346108 -0.017477438070138098
000410 3b 3f 6d 3f 6b cd c0 bf a6 a2 65 36 35 74 c6 bf
       -0.13126888844498716 -0.17542138248542932
000420 48 4f f6 1e 4a b3 c7 bf 3b 07 ef 8d f0 2a 9e bf
       -0.1851589823896751 -0.029460676825471693
000430 d2 68 71 41 df 5a b7 bf 77 2b f1 4c f6 0c c9 3f
       -0.09123034808854705 0.1957080722516726
000440 21 1c e0 ab 92 82 b6 3f 69 94 8a 79 de 84 c9 3f
       0.08792988487412902 0.1993673413718711
000450 7c 51 a2 fd 1f f4 a7 3f 37 5f ce b4 d0 d7 af bf
       0.04678440066450926 -0.06219341475588041
000460 4d cb dd 43 0e 7c b6 3f 0d 72 b3 3a 4d fc c6 3f
       0.08783044011015058 0.17957463613755956
000470 96 33 3e 48 9b 0a 92 bf 73 02 5c 1a 35 d9 c5 3f
       -0.017618585857735868 0.1706911448200291
000480 bb de 9c 83 b9 ad b3 3f 90 c6 88 4d 27 2a c8 3f
       0.07686957801058274 0.18878642354825503
000490 4f 58 d8 e5 f1 6c bb 3f c6 26 5c b0 f2 67 a6 3f
       0.10713111745312286 0.043761810329738846
0004a0 dd f2 5d 03 1b d7 c2 bf 86 99 40 ab 66 8a b1 3f
       -0.1471894995155684 0.06851808243718524
0004b0 5e e4 e7 e3 a0 19 c5 3f 38 38 74 eb 31 33 95 bf
       0.16484461906637454 -0.020703105922670967
0004c0 cf 30 1c 8a a4 fb aa bf cd 81 91 c2 14 a2 c8 3f
       -0.05270113168634937 0.1924463224450065
0004d0 3b f1 41 e1 db 10 c8 3f d6 13 bb 45 11 20 c7 3f
       0.18801449297814962 0.18066612152884315
0004e0 d4 6b 5c cd 68 14 b6 3f b2 35 07 e5 8b 68 b3 3f
       0.08624892247864518 0.0758140024328984
0004f0 aa 12 ef 0f 60 cc 76 bf e1 ed a4 22 62 83 bc bf
       -0.005566001170283977 -0.11137975068861962
000500 2c 9a 03 f4 70 ee b5 bf ea fa 2a da a5 0f c5 3f
       -0.08566957433104311 0.16454003479699192
000510 7c 23 e8 e3 71 74 b9 3f 6c e3 d7 6d e1 45 b6 3f
       0.09943305791979457 0.08700379306527645
000520 5c 79 f6 61 1f 26 c4 bf 4c c8 d0 79 e9 4c 9a bf
       -0.15741340907420465 -0.02568402105334426
000530 0b 68 c1 94 1a f2 b8 bf 7a 1b 11 d7 2e 72 b5 bf
       -0.09744421130872653 -0.08377354384093208
000540 86 7c 63 2d 49 83 c6 bf 5c fb 5c d0 c9 9c b8 bf
       -0.17588152614823488 -0.09614240014069025
000550 3e ac 1d 85 9d 61 c4 3f 41 fc 43 8b 0a 44 c4 bf
       0.15922898292351023 -0.1583264522559791
000560 b8 c7 04 6e 45 3a ae bf 27 6e 41 f5 f8 1b bf bf
       -0.05903832405091641 -0.12152057635960799
000570 10 10 b2 61 9c 32 91 bf b0 14 b8 ec c4 4e 98 3f
       -0.01679462763105738 0.02373798079317585
000580 91 04 cd 45 34 6b 6c bf 24 33 8e ab cb 52 b3 bf
       -0.003469087691343527 -0.0754821103893844
000590 7a 57 9f c5 26 3b b4 bf 9b 43 5e 0f 6b 1a 9b bf
       -0.0790275795437462 -0.026467964947702077
0005a0 fd 0b 00 bd 5e 6e c2 bf 65 a2 a3 72 25 9a b2 bf
       -0.14399322727703626 -0.07266458557899964
0005b0 2d 18 ff de 92 b1 8a 3f 31 ce e5 56 f7 3e 64 bf
       0.013034007482826205 -0.002471430859424272
0005c0 01 1e 42 c7 e0 ab c4 3f 08 1a e4 8f 3a 62 b5 bf
       0.16149530152709704 -0.08353010189976129
0005d0 88 7b 4b eb 6f 1a be bf 5a c3 53 b0 c7 3c c1 3f
       -0.1175908994150473 0.13466735944487135
0005e0 c6 2b 14 c2 e9 0d c9 bf ac 5f 31 6c 8e c8 c2 bf
       -0.1957370946550709 -0.1467454937253455
0005f0 49 a7 74 61 7f d4 ac 3f 7f d9 0f bd 95 33 9f 3f
       0.056308727880902305 0.03047021833841645
000600 48 c8 b4 e5 7a b1 b1 bf 58 71 d0 06 f9 67 c8 3f
       -0.06911438091336308 0.19067299683309602
000610 9c 14 f3 4a 7d 54 b4 3f fe 9e fb f8 7c fd 96 3f
       0.07941420631239499 0.022451355644903075
000620 e4 bc 13 e5 4f 58 a5 bf a1 29 30 5b 2a 00 c3 bf
       -0.04168939277030306 -0.14844254925294556
000630 eb b4 11 62 2d 7e b0 bf 36 ca f1 51 c2 39 c7 bf
       -0.06442531246439713 -0.18145016671367536
000640 75 b2 59 cb 70 1c b9 3f 9c 44 51 96 ba 97 c2 3f
       0.09809021916016454 0.14525539722175018
000650 6c 3c 90 3c a7 b3 b1 bf 16 54 71 a7 eb 55 c1 bf
       -0.06914754131888551 -0.13543458629524768
000660 d3 a3 ec 5f 89 d9 92 3f 3e c0 f1 98 88 96 c2 bf
       0.01840796134925766 -0.145218920402387
000670 a4 d5 ab 16 7b a8 af bf 71 c0 85 28 9a db bb 3f
       -0.061832281606182066 0.10881961335485514
000680 5f ec 7d 28 43 c6 b0 3f a5 f3 3a 6f fe 2c c8 bf
       0.0655252431733273 -0.18887310439268137
000690 be 0f 49 c6 6a fb b1 bf 7b 16 45 f7 c2 f9 51 bf
       -0.07024257031395018 -0.0010971454585883267
0006a0 37 21 48 82 2e cf c7 bf 51 cf 50 c4 2b b2 c0 bf
       -0.18601018296636493 -0.13043734632230522
0006b0 c1 ca b6 68 6d df c8 3f c8 74 50 7e 62 38 91 3f
       0.19431846249570664 0.01681665321313089
0006c0 94 ff ca 9a fe 66 95 bf e3 cd 73 14 74 a6 c6 3f
       -0.02090070552617325 0.17695475577021033
0006d0 46 b8 df eb 4e 2b 62 3f 95 c3 00 dd f0 60 b0 bf
       0.0022179166253329134 -0.06397920032101319
0006e0 19 fe 9c 61 a0 6c c8 bf 37 fa 68 11 cd 54 a5 bf
       -0.1908150173785408 -0.041662605643513144
0006f0 00 6f 2e ec 0c 13 92 3f eb 95 2a bc 1c ed c6 bf
       0.017650796809546954 -0.17911109149751722
000700 77 7d bc 4b 1d 42 af 3f 4b 88 34 5f 95 f6 85 bf
       0.06105128812327625 -0.010724226921016952
000710 b2 ce b4 14 75 d9 b5 3f 23 2f 83 ab 19 4f c2 3f
       0.08534938579105747 0.14303894877081644
000720 d5 96 b0 1f 83 9c b4 3f 22 b0 f3 61 f0 6d c4 bf
       0.08051318668057246 -0.15960507185752798
000730 fa 4a 14 6e d6 69 95 3f a9 b2 27 b1 3d ee c3 3f
       0.020911550968842875 0.1557080378546705
000740 33 6e 06 ac 6b dd b2 3f 78 70 c5 f4 bb a1 a4 3f
       0.07369111013252265 0.04029643404894129
000750 e7 21 5c 66 c3 e7 bb bf e5 45 d3 01 8c ae ab 3f
       -0.10900517701168831 0.05406606218606295
000760 e7 6d 67 7a f6 e0 ad bf 56 41 bb cb c2 36 b2 3f
       -0.05835695499601084 0.07114808534538972
000770 cc 74 6e 52 80 1b 80 3f 79 70 11 81 21 82 c7 bf
       0.007864954486473862 -0.18365877916483322
000780 23 49 4a f8 42 ae c0 3f 66 31 9c 96 e6 47 9d bf
       0.1303180420259845 -0.028594592039597265
000790 ae 02 35 cf 65 e1 a5 bf 32 8f 27 0d b4 7f a6 3f
       -0.042735272926170395 0.04394304905488723
0007a0 34 2d c3 2c f0 35 90 3f a2 c8 c4 cc b6 4f b5 bf
       0.015830757839279744 -0.08324759005771168
0007b0 f4 af 30 6e 13 13 c3 bf 19 94 4f ee 1a 5e a5 bf
       -0.14901965027217978 -0.04173359068935429
0007c0 86 ba 89 a8 e3 65 a8 bf 10 87 68 f7 20 46 c5 bf
       -0.04765235359524404 -0.16620266037448816
0007d0 24 cc 79 7c 55 0c c8 3f ba cc fa 42 c0 ac aa 3f
       0.18787640169065967 0.05209923570273518
0007e0 26 6b 60 76 4b 10 b5 bf 8b f5 57 31 58 8e c1 3f
       -0.08227988853506626 0.1371565094886303
0007f0 a7 7a 80 de c8 ab c4 bf d5 58 c1 64 eb aa a1 bf
       -0.16149245132779308 -0.03450713734552983
