encoder.pth (torch, 467867 bytes, 41 tensors)

ship_fc.weight f4 [32, 5]
0	0x3df9a85d	0.12190316
1	0xbe9a0fcd	-0.3009018
2	0xbea8ab60	-0.3294325
3	0xbd6de27b	-0.058077317
4	0xbe94bce3	-0.2905036
5	0x3e2a6cb4	0.1664303
6	0x3e291201	0.16510774
7	0x3e941d47	0.28928587
8	0xbd0e2208	-0.034700423
9	0xbea7a0dc	-0.32739913
10	0x3e959b6e	0.29220146
11	0xbd1cc174	-0.03827043
12	0xbeb7b51d	-0.35880366
13	0xbe9ff00e	-0.31237835
14	0xbe88c753	-0.26714572
15	0x3ecb4627	0.3970196
16	0x3ec3b9b2	0.38227612
17	0x3da0d4fc	0.078531235
18	0xbe89b07b	-0.26892456
19	0x3dcca26f	0.09991919
20	0x3d959475	0.073037066
21	0xbe385b8c	-0.18003672
22	0x3e992fb0	0.29919195
23	0x3cfdb9b0	0.030972332
24	0xbddda726	-0.10822897
25	0x3c96c7c6	0.018405806
26	0x3e82227a	0.2541693
27	0xbed19a57	-0.40938064
28	0xbec90ab1	-0.3926597
29	0x3e0ab677	0.13546167
30	0x3ed549c0	0.4165783
31	0xbcc3471f	-0.023837624
32	0xbeacb5dc	-0.33732498
33	0xbedf93c6	-0.4366743
34	0x3ea7a9b1	0.32746652
35	0x3eae64f3	0.34061393
36	0x3e9bd140	0.30433083
37	0xbd813dd3	-0.0631062
38	0x3dde4ca2	0.1085446
39	0xbe498287	-0.19678698
40	0xbd625ce9	-0.055264387
41	0x3ed80557	0.42191574
42	0x3ec567b1	0.38555673
43	0xbdf5e4d3	-0.120065354
44	0xbebbeb92	-0.36703163
45	0xbe4a5abd	-0.19761176
46	0x3ed64c6c	0.4185518
47	0x3d2bd4e6	0.041951083
48	0xbeb82d8c	-0.3597225
49	0xbecb6579	-0.39725855
50	0xbec0de7a	-0.37669736
51	0xbb2e8c50	-0.0026633926
52	0xbdc0d7e1	-0.09416176
53	0xbe88b37f	-0.26699445
54	0x3dce6616	0.10078065
55	0xbef45a44	-0.47725117
56	0x3e47c6e3	0.19509463
57	0x3da4b691	0.08042634
58	0xbe3d8a90	-0.18509889
59	0xbe43ba3e	-0.19114015
60	0x3e75df56	0.24010977
61	0xbddca54b	-0.10773715
62	0x3ee6dc54	0.45089972
63	0x3ed28a0f	0.41120955
64	0xbdb25ce7	-0.08709126
65	0x3e018479	0.1264819
66	0x3e9b039d	0.30276194
67	0xbec4c34d	-0.38430253
68	0xbc9f917e	-0.019478556
69	0xbe078ef9	-0.13238133
70	0xbd3d73b3	-0.046252917
71	0xbeb17b73	-0.34664497
72	0x3ede5272	0.43422276
73	0x3e049a80	0.12949562
74	0xbebe37f4	-0.37152064
75	0x3e4d7fae	0.20068237
76	0x3c9eacc5	0.019369492
77	0x3dae0e9d	0.08498881
78	0xbcd8ea22	-0.02647883
79	0xbd5853a1	-0.05281413
80	0x3e1226af	0.14272569
81	0xbcf61296	-0.03003816
82	0xbecee2a7	-0.40407297
83	0x3ecca7df	0.39971825
84	0x3eb09f9a	0.34496766
85	0xbba0b38f	-0.0049042176
86	0xbc0bfd2a	-0.008544246
87	0xbe82fc09	-0.25582913
88	0x3eb85a5b	0.36006436
89	0xbe763cfb	-0.240467
90	0x3e34c9a0	0.17655039
91	0x3ec173cb	0.37783656
92	0xbe6b154d	-0.22957344
93	0x3eb38e9f	0.3506975
94	0x3e5dffb1	0.2167957
95	0xbebe2ba8	-0.37142682
96	0xbe691ebd	-0.22765632
97	0x3ecc5384	0.39907467
98	0x3dfc990c	0.12333879
99	0x3e33876a	0.17532125
100	0xbeb7ad0f	-0.3587422
101	0x3e7662da	0.24061146
102	0x3ed97756	0.4247386
103	0xbdd38df7	-0.10329812
104	0xbe98ff0d	-0.29882088
105	0xbea922eb	-0.33034453
106	0x3eacade8	0.3372643
107	0xbd8ce29e	-0.06879161
108	0xbe7cef91	-0.24700762
109	0x3ebb6745	0.36602226
110	0xbe0f6e39	-0.1400689
111	0xbe94a816	-0.2903449
112	0x3e4130d5	0.18866284
113	0xbe87a73a	-0.2649477
114	0x3c835b20	0.016034663
115	0x3dc0fff4	0.09423819
116	0xbce786f2	-0.02826259
117	0x3ecedccd	0.40402833
118	0xbe8fdb2d	-0.28096905
119	0x3eb736f9	0.35784128
120	0x3e54555a	0.20735684
121	0x3dd60f66	0.10452156
122	0xbe7ba352	-0.2457402
123	0x3d9c5b85	0.076346435
124	0x3e945905	0.28974167
125	0x3c80fa91	0.01574448
126	0xbe4bb309	-0.19892515
127	0x3ef06e9f	0.46959397
128	0x3e6032fa	0.21894446
129	0xbea61b38	-0.3244264
130	0xbeb902d6	-0.36134976
131	0xbeaf969a	-0.34294587
132	0xbe452b2d	-0.19254752
133	0xbe02927f	-0.12751196
134	0x3ce32407	0.02772714
135	0x3d3df511	0.04637629
136	0x3e8c0a9a	0.27351838
137	0x3e393d24	0.1808973
138	0xbe496e27	-0.19670926
139	0x3ca839d1	0.020535382
140	0x3db20436	0.086922094
141	0xbec01ef8	-0.37523627
142	0xbe7f7be8	-0.2494961
143	0x3e6ba630	0.23012614
144	0x3e612e3d	0.21990295
145	0xbdced20e	-0.100986585
146	0x3ee3e9bd	0.44514266
147	0x3eb981a8	0.36231732
148	0x3d099d85	0.033597488
149	0x3e9e98d2	0.30975968
150	0x3e89c987	0.26911566
151	0xbea6560d	-0.32487527
152	0xbdb1eda0	-0.086879015
153	0x3e76d921	0.24106266
154	0x3eb34d2e	0.3501982
155	0xbebefeba	-0.37303716
156	0xbcd6389c	-0.02615004
157	0xbec9c40b	-0.3940738
158	0xbdb565d7	-0.08857315
159	0x3e33a533	0.17543487

asteroid_fc.weight f4 [32, 5]
0	0xbe75cdf1	-0.24004342
1	0x3db58dc9	0.08864934
2	0x3e3b9b19	0.18320884
3	0x3c57857f	0.013154387
4	0xbe4f63e5	-0.2025295
5	0x3e7c94d7	0.24666153
6	0xbe9977fe	-0.2997436
7	0xbe949c95	-0.29025713
8	0xbe7669a8	-0.24063742
9	0x3de884f3	0.11353483
10	0x3df4112a	0.11917336
11	0xbe92a4e2	-0.2864142
12	0x3db0f4a3	0.08640411
13	0xbe766e5f	-0.2406554
14	0x3e4965ff	0.19667815
15	0xbe7313b3	-0.23737983
16	0xbeae46ce	-0.34038395
17	0xbd0babac	-0.034099266
18	0x3e5256b5	0.20540889
19	0x3e6c6784	0.23086363
20	0xbdce0083	-0.10058691
21	0x3d00c8e1	0.031441573
22	0x3dee1d8a	0.11626728
23	0xbe4e67a4	-0.20156723
24	0xbe1eb1c6	-0.15497503
25	0x3d2feef8	0.042952508
26	0xbeecfc2e	-0.46286148
27	0x3ee05c18	0.43820262
28	0xbe38e2f5	-0.18055327
29	0x3de2ad51	0.11068214
30	0x3d905a63	0.0704849
31	0xbe0fef13	-0.14056043
32	0xbdf8b000	-0.12142944
33	0x3db11119	0.08645839
34	0xbd00d8c5	-0.031456728
35	0x3d05b78a	0.03264574
36	0xbe848663	-0.2588378
37	0x3e1e1ef7	0.154415
38	0x3e90e8e0	0.2830267
39	0xbe8a74b2	-0.27042156
40	0x3ebe148c	0.3712505
41	0x3d7c95a6	0.061666153
42	0xbe4456bb	-0.1917371
43	0xbe88a38d	-0.2668728
44	0x3e9bc50c	0.30423772
45	0x3ea480ff	0.32129666
46	0x3ea42c79	0.3206518
47	0xbeb8bb6d	-0.36080495
48	0x3ed51a23	0.41621503
49	0x3cd1ca6d	0.02560922
50	0x3cde28c1	0.027119042
51	0x3e98aec9	0.2982085
52	0xbe92f261	-0.28700545
53	0x3eb88500	0.3603897
54	0x3df1a6de	0.117994055
55	0x3ec1adaf	0.37827823
56	0xbe3b074e	-0.18264505
57	0xbe900bc3	-0.28133973
58	0x3e0938a5	0.13400514
59	0x3e4c41e7	0.19947015
60	0x3eb0fc0b	0.34567294
61	0x3ced8cbc	0.028997771
62	0xbe260040	-0.16211033
63	0x3df37242	0.11887027
64	0xbea6b314	-0.325585
65	0x3e215d8a	0.15758339
66	0xbd8072d7	-0.06271904
67	0x3e920ef4	0.28527033
68	0x3c88f3e9	0.016717868
69	0x3d11ef71	0.03562874
70	0x3e8454d8	0.2584598
71	0x3ece0ff8	0.40246558
72	0x3ce18bab	0.02753242
73	0xbed806aa	-0.42192584
74	0xbeb6bd33	-0.35691223
75	0x3d4db01a	0.05021677
76	0x3ea38bdc	0.31942642
77	0x3dd98a4d	0.10622082
78	0xbe3603c9	-0.17774881
79	0xbe9c9212	-0.30580193
80	0x3e216eb5	0.15764888
81	0xbec11304	-0.3770982
82	0xbec02792	-0.3753019
83	0x3e0f6f6c	0.14007348
84	0x3e4c1ac9	0.19932093
85	0x3eda3774	0.42620432
86	0x3e917af7	0.28414127
87	0xbeb5fa34	-0.35542452
88	0xbe678275	-0.22608359
89	0xbe7405ac	-0.23830289
90	0xbdd96fab	-0.10617002
91	0x3dffbfb7	0.124877386
92	0x3ee130e0	0.439826
93	0xbd71f93f	-0.05907559
94	0x3ecc8f5e	0.3995313
95	0xbed5c2c9	-0.41750172
96	0xbe94c754	-0.29058325
97	0x3e8010a6	0.25012702
98	0x3e9f43e3	0.3110648
99	0xbe262fd0	-0.16229177
100	0x3ebd40fd	0.36963645
101	0x3e9be4d8	0.3044803
102	0x3e08c3a8	0.13355887
103	0x3e8ab6e3	0.27092656
104	0x3e5c09ee	0.21488163
105	0xbd518c7d	-0.05115937
106	0xbed90712	-0.42388207
107	0x3c4ae284	0.012383107
108	0xbc5ae359	-0.013359868
109	0xbda521ee	-0.08063112
110	0x3e39482b	0.18093936
111	0xbe931b57	-0.28731796
112	0xbe958a73	-0.2920719
113	0x3e98248d	0.29715386
114	0x3e6df62f	0.23238443
115	0x3ca2e375	0.01988385
116	0x3dd09bcb	0.10185965
117	0xbeba523c	-0.36390865
118	0x3ed7a8a1	0.4212084
119	0xbeb18f24	-0.3467952
120	0x3e96c2a9	0.2944539
121	0x3ebd58b7	0.36981747
122	0x3e39f875	0.18161185
123	0x3d773fff	0.060363766
124	0x3ef828e1	0.48468688
125	0x3e36637f	0.17811392
126	0xbe8264ce	-0.25467533
127	0xbe2b6fbd	-0.16741844
128	0xbe6696d2	-0.22518471
129	0x3e640065	0.22265776
130	0xbeaba271	-0.3352237
131	0xbecac763	-0.39605245
132	0xbd0f1b74	-0.03493829
133	0xbec5ff4e	-0.38671345
134	0x3eb2f9fe	0.34956354
135	0xbd126483	-0.035740387
136	0xbea65648	-0.32487702
137	0xbe7a5492	-0.24446324
138	0x3d9d466b	0.07679447
139	0x3e331237	0.17487417
140	0xbed1ccc9	-0.4097655
141	0x3ee89f0a	0.45433837
142	0x3e0f5eed	0.14001055
143	0x3eb875eb	0.36027464
144	0x3db733f3	0.089454554
145	0xbea5df47	-0.3239691
146	0x3eb53002	0.3538819
147	0xbb1ad4e0	-0.0023625419
148	0xbe5a48fd	-0.21316905
149	0x3e0bcd1d	0.13652463
150	0xbed32f6a	-0.41247112
151	0x3ec4fa0e	0.38472027
152	0x3e902276	0.28151292
153	0xbe2c158e	-0.16805097
154	0xbe8e175a	-0.2775219
155	0x3d9ae2f6	0.075628206
156	0x3c75f1f1	0.015011297
157	0x3e81dba9	0.253629
158	0x3ed70213	0.4199377
159	0x3d88de45	0.066830195

mineral_fc.weight f4 [32, 2]
0	0x3ea3ce41	0.31993297
1	0xbdde9dba	-0.10869928
2	0xbe67ccb6	-0.22636685
3	0xbeb29f8b	-0.34887347
4	0x3dedac3c	0.11605117
5	0x3e4a4deb	0.19756286
6	0xbe877b62	-0.2646132
7	0x3ed2cb17	0.4117057
8	0xbcf302b0	-0.029664367
9	0xbf070d18	-0.52754354
10	0xbc5f4132	-0.013626384
11	0xbd9fdedb	-0.07806178
12	0x3eefa9eb	0.46809325
13	0x3f0c9a65	0.5492309
14	0x3d308a19	0.04310045
15	0xbed1db1c	-0.4098748
16	0xbdcce189	-0.10003955
17	0x3ec1583b	0.37762627
18	0xbef8c772	-0.48589665
19	0x3f0a7845	0.54089767
20	0x3f103644	0.563328
21	0xbebf916c	-0.37415636
22	0xbecbce09	-0.3980563
23	0x3f2998f4	0.6624901
24	0xbceec8f6	-0.02914856
25	0x3effdc78	0.49972892
26	0xbe9e773b	-0.3095034
27	0xbf308abe	-0.68961704
28	0xbf168b2d	-0.58806115
29	0xbf04f239	-0.519321
30	0xbf27e7cb	-0.65588063
31	0x3e189a9e	0.14902732
32	0x3dcaca17	0.09901827
33	0x3ecf93a3	0.40542325
34	0xbdaf0e35	-0.08547632
35	0xbe77a7c5	-0.24185093
36	0xbee6f872	-0.45111424
37	0x3d0b4e02	0.03400994
38	0xbdfe3865	-0.124131
39	0xbee1564e	-0.44011158
40	0xbd31e076	-0.043426953
41	0x3e9f86ef	0.31157634
42	0x3f1db38e	0.61602104
43	0xbe8318e2	-0.25604922
44	0x3f34299d	0.70375997
45	0x3e8d6f5f	0.27624032
46	0x3e9c746e	0.3055758
47	0xbef8f7f3	-0.4862667
48	0x3f1cf0be	0.61304843
49	0xbef837d4	-0.48480093
50	0xbe5757ab	-0.21029536
51	0xbf1cffcc	-0.61327815
52	0xbec1721b	-0.37782368
53	0x3ebbb5e6	0.36662215
54	0xbefb2a0a	-0.4905551
55	0xbf106ddd	-0.5641764
56	0xbe9c7e72	-0.3056522
57	0x3ee37054	0.44421637
58	0x3f27f37c	0.656059
59	0x3f1c85e4	0.611418
60	0xbe83aab7	-0.25716183
61	0x3e916c72	0.2840305
62	0x3f287e13	0.65817374
63	0x3e8aceb6	0.27110833

gae.layers.0.0.module.W_query f4 [8, 32, 4]
0	0x3ed88ed5	0.42296472
1	0x3e03dc41	0.12876989
2	0xba10b85b	-0.0005520635
3	0x3e08385d	0.13302751
4	0xbed6b99f	-0.41938493
5	0x3e90931e	0.28237242
6	0x3e73db84	0.23814207
7	0xbe9b00f0	-0.30274153
8	0x3f07d245	0.5305522
9	0x3e1a55c7	0.15071784
10	0x3e5cddbe	0.21568963
11	0xbe5be514	-0.21474105
12	0xbebc5f01	-0.36791232
13	0xbdf890f4	-0.121370226
14	0x3eddc844	0.43316853
15	0x3ed3b12f	0.41346118
16	0x3ef2cd01	0.4742203
17	0xbdf466e6	-0.11933689
18	0x3d3d0b7d	0.046153534
19	0xbec56cda	-0.3855961
20	0xbe0c73bc	-0.13716024
21	0xbee7d8ca	-0.45282584
22	0xbe0fa2ba	-0.14026919
23	0x3ee36a49	0.44417027
24	0xbe879da1	-0.2648745
25	0xbec4825b	-0.38380703
26	0xbe7ce24a	-0.24695697
27	0xbeeec098	-0.46631312
28	0x3e3d7f00	0.18505478
29	0x3e866ce7	0.2625496
30	0x3e92aa05	0.2864534
31	0xbeeb3f3a	-0.45946676
32	0xbdfb102c	-0.12258944
33	0x3e0ddfec	0.1385495
34	0xbe582793	-0.21108846
35	0xbe833f47	-0.25634214
36	0x3ecd4570	0.4009204
37	0x3d9292e8	0.071569264
38	0xbe648235	-0.22315295
39	0x3d9bb4a9	0.076028176
40	0x3e8f7098	0.2801559
41	0x3e84ad95	0.25913683
42	0x3ed56bd3	0.41683826
43	0x3e83e595	0.25761095
44	0xbe8d3f75	-0.27587476
45	0x3c2db0d7	0.010601244
46	0x3d131a0e	0.03591352
47	0x3f02bdcf	0.51070875
48	0xbee908e7	-0.45514604
49	0x3eca122e	0.39466995
50	0x3eba5ae5	0.36397472
51	0xbd308c1a	-0.04310236
52	0xbe317f7f	-0.17333792
53	0xbeaadbe5	-0.3337089
54	0x3e3c510f	0.18390296
55	0x3eef895e	0.4678449
56	0xbde26fce	-0.11056481
57	0xbec9534b	-0.3932136
58	0xbea0e581	-0.31425098
59	0x3e325a6f	0.1741731
60	0xbf05ff6d	-0.52342874
61	0xbe1f2708	-0.15542233
62	0x3e11ad0d	0.1422617
63	0x3ed03049	0.4066184
64	0x3e9e70f3	0.30945548
65	0x3ecf4033	0.40478668
66	0xbeb1d8af	-0.3473563
67	0xbea03a6a	-0.31294566
68	0x3e523b85	0.20530517
69	0x3ed28355	0.41115823
70	0x3ebfb568	0.3744309
71	0x3ebcc885	0.36871734
72	0x3df5dc95	0.12004963
73	0xbec749e4	-0.38923562
74	0xbe382b21	-0.17985202
75	0x3df5558c	0.119792074
76	0xbeb18751	-0.3467355
77	0x3e33c527	0.17555676
78	0xbe74a650	-0.23891568
79	0xbe336b35	-0.17521365
80	0x3e9d7724	0.3075496
81	0x3eecbc26	0.46237296
82	0xbe9d69a1	-0.3074465
83	0x3f073ce9	0.52827317
84	0x3efdb9b6	0.4955575
85	0x3eefaabe	0.46809953
86	0xbf0ac5d1	-0.54208094
87	0x3ecbad20	0.3978052
88	0x3c42736b	0.011868338
89	0x3da60ca2	0.08107878
90	0xbe8d1b34	-0.27559817
91	0x3da98938	0.082781255
92	0x3e5cb3e5	0.21553
93	0x3ebbb4ab	0.36661276
94	0xbee75295	-0.45180193
95	0xbeadbf06	-0.33934802
96	0x3ed9c175	0.42530409
97	0x3decdc5e	0.11565469
98	0x3e4eec67	0.20207368
99	0x3ec08645	0.3760244
100	0xbd9aba17	-0.07555025
101	0xbec29dc0	-0.3801098
102	0x3ef68c7a	0.4815405
103	0x3e0d0a5e	0.13773486
104	0x3e95ec2f	0.29281756
105	0xbce0ea54	-0.027455486
106	0x3ef03915	0.4691855
107	0xbead55b2	-0.33854443
108	0xbe94a6ad	-0.29033414
109	0xbf095efb	-0.53660554
110	0xbea1f1cd	-0.31629792
111	0x3d7c30b2	0.061569877
112	0xbe902864	-0.28155816
113	0xbed930c1	-0.4242001
114	0xbeb5771e	-0.35442442
115	0x3e948e74	0.29014933
116	0x3ef22fdb	0.47302136
117	0xbdcd5ff1	-0.10028065
118	0xbe9a8490	-0.30179262
119	0xbe4191ce	-0.18903276
120	0xbed05a90	-0.40694094
121	0xbde85772	-0.11344804
122	0x3f020318	0.5078597
123	0xbea3e0cc	-0.32007444
124	0x3ec8d536	0.39225167
125	0xbdf025a6	-0.11725931
126	0x3edfc4c1	0.437048
127	0xbc87b5ab	-0.016566118
128	0x3e6561da	0.22400609
129	0xbe950779	-0.29107264
130	0x3ea4cc7b	0.32187256
131	0x3edf619a	0.43629152
132	0xbe947b70	-0.29000425
133	0xbe351a9a	-0.17685929
134	0xbe9b0ba0	-0.30282307
135	0x3e932da9	0.28745773
136	0xbd2df48a	-0.04246954
137	0x3e9271c7	0.2860243
138	0x3d7be0d7	0.06149372
139	0x3e8dee86	0.2772104
140	0xbef8802a	-0.4853528
141	0x3ee89427	0.4542553
142	0x3e115940	0.14194202
143	0x3e9a5cad	0.3014883
144	0xbc90124e	-0.017586853
145	0x3e24430b	0.160412
146	0x3e554863	0.20828395
147	0xbea3732a	-0.319238
148	0xbeaaa10d	-0.33325997
149	0xbe73b9bc	-0.23801321
150	0xbec9700e	-0.39343303
151	0xbe0e2c04	-0.13883978
152	0x3efc956a	0.49332744
153	0xbcae0839	-0.021244155
154	0x3e37b2e0	0.17939329
155	0xbe6e2cec	-0.23259324
156	0x3ef312ec	0.47475374
157	0x3e1d30b6	0.15350613
158	0x3e7b924b	0.24567525
159	0xbe9285f6	-0.2861783
160	0x3ebf415f	0.37354562
161	0xbebb50f5	-0.36585203
162	0xbebef3d3	-0.37295398
163	0xbef439a8	-0.47700238
164	0x3ed79c92	0.4211164
165	0xbe772b81	-0.24137689
166	0xbdc11bec	-0.09429154
167	0x3d734140	0.0593884
168	0x3e9274ec	0.2860483
169	0x3efbcc3f	0.49179265
170	0xbede3a93	-0.43404064
171	0x3ed42da0	0.4144106
172	0xbee800c3	-0.4531308
173	0x3e9f8d64	0.3116256
174	0xbeabb190	-0.33533907
175	0x3e8edfb3	0.27905044
176	0xbcaa601b	-0.02079778
177	0x3e253447	0.16133223
178	0x3d0768cd	0.03305893
179	0xbef4e75f	-0.47832772
180	0xbd9395d6	-0.07206313
181	0x3dd0ed74	0.102015406
182	0xbe85dcf9	-0.2614515
183	0xbcdfeec3	-0.02733553
184	0xbabe4929	-0.0014517653
185	0x3e23518c	0.15949076
186	0x3dc9c053	0.09851136
187	0xbe075a9c	-0.13218158
188	0x3c4c4914	0.012468595
189	0xbe21b66e	-0.15792248
190	0xbe9900e9	-0.29883507
191	0x3ec96305	0.39333358
192	0x3efce588	0.49393868
193	0xbe6eadea	-0.2330853
194	0x3f02d458	0.5110526
195	0xbe49d82c	-0.1971137
196	0xbebb0677	-0.3652837
197	0x3e8158be	0.25263017
198	0xbeee4dd2	-0.46543747
199	0x3d805222	0.062656656
200	0x3eecda77	0.46260425
201	0xbed216cf	-0.41033027
202	0xbedf8ccd	-0.4366211
203	0xbeb369d8	-0.3504169
204	0x3dfa7261	0.12228847
205	0xbc6c1f43	-0.01441175
206	0xbdf79ffe	-0.12091063
207	0xbec416c4	-0.3829862
208	0x3ed20de5	0.41026226
209	0x3eb1946a	0.34683543
210	0xbe678778	-0.22610271
211	0x3f0b10de	0.5432261
212	0x3ec25386	0.37954348
213	0x3e1985fd	0.14992519
214	0xbd63b807	-0.055595424
215	0xbe9e906c	-0.3096956
216	0x3ddc7bfe	0.10765837
217	0xbe9d1449	-0.3067954
218	0xbd162341	-0.036654714
219	0x3e3954e5	0.18098791
220	0xbe2b5644	-0.16732126
221	0xbdc2cd02	-0.095117584
222	0x3e344bdc	0.17607063
223	0xbddf2196	-0.10895078
224	0x3e616dc5	0.2201453
225	0xbdd52d90	-0.10409081
226	0xbe4addef	-0.19811223
227	0x3eaf06e5	0.34184948
228	0xbec9fdb0	-0.3945136
229	0xbee7a5d1	-0.45243695
230	0x3e629063	0.22125392
231	0xbe5510e8	-0.2080723
232	0xbef5a6ca	-0.47978812
233	0xbde2df27	-0.11077719
234	0x3eaf2a5f	0.34212014
235	0x3e62683a	0.22110072
236	0x3e5968df	0.21231411
237	0xbe35001f	-0.17675827
238	0x3cc539f7	0.024075491
239	0xbe3e3534	-0.18574983
240	0xbea605d5	-0.32426324
241	0x3de0f1bf	0.109836094
242	0xbedfc3eb	-0.4370416
243	0xbdebd1ff	-0.11514663
244	0x3ef0c15d	0.47022524
245	0x3ed708f4	0.41999018
246	0x3ece3bbb	0.40279946
247	0xbc0d218b	-0.008613954
248	0xbe8bca30	-0.27302694
249	0xbef42a8d	-0.47688714
250	0x3e042c06	0.12907419
251	0xbd5af17d	-0.053452957
252	0xbed1663a	-0.40898305
253	0xbeccfa89	-0.40034893
254	0x3ddba6dc	0.10725185
255	0xbe245c9f	-0.16050957

gae.layers.0.0.module.W_key f4 [8, 32, 4]
0	0x3e900a73	0.28132972
1	0x3e9d1eba	0.30687505
2	0x3d03e1d3	0.032197785
3	0xbeaa84a7	-0.3330433
4	0xbc22bbaf	-0.009932443
5	0xbee60f06	-0.44933337
6	0x3e941ab7	0.28926632
7	0x3b0d1027	0.002152452
8	0x3ece7f8a	0.4033168
9	0x3c95af22	0.018271986
10	0xbe5248fc	-0.20535654
11	0x3e2b1943	0.16708855
12	0xbf0b8b7c	-0.5450971
13	0x3ebc16a9	0.36736038
14	0x3db83c46	0.08995871
15	0x3e8ca9f2	0.27473408
16	0x3eb9fbe3	0.36324987
17	0xbeb53788	-0.3539393
18	0x3eab4487	0.3345072
19	0xbe5a945d	-0.21345659
20	0x3ec60a00	0.38679504
21	0x3e92f756	0.28704327
22	0xbed57b91	-0.41695836
23	0xbedfc455	-0.43704477
24	0xbd3cb329	-0.046069298
25	0xbea2d068	-0.31799626
26	0x3e95d104	0.2926103
27	0xbd27feb9	-0.041014407
28	0x3d7b02fb	0.06128214
29	0xbef52b11	-0.4788442
30	0xbe44458c	-0.19167155
31	0x3d9b2e62	0.07577206
32	0x3e5f8f19	0.21831931
33	0xbed5f055	-0.4178492
34	0xbeee44e4	-0.46536934
35	0xbbe52cb3	-0.006993854
36	0xbe92f928	-0.28705716
37	0x3e903742	0.28167158
38	0x3e1360ea	0.14392439
39	0x3ec14659	0.37748984
40	0x3e40341f	0.18769883
41	0x3e6bba22	0.23020223
42	0xbe8e6b70	-0.27816343
43	0x3eba28cf	0.3635926
44	0x3ef82436	0.48465127
45	0x3e54695a	0.20743313
46	0x3f042f77	0.51634926
47	0xbeb846dc	-0.3599156
48	0xbd28929d	-0.041155446
49	0x3edb1d76	0.42795914
50	0x3e52660d	0.20546742
51	0x3ea533d5	0.32266107
52	0x3db36a14	0.08760467
53	0x3eeb3ecc	0.45946348
54	0xbeca5d58	-0.3952434
55	0xbeb94f22	-0.36193186
56	0x3e3ee824	0.18643242
57	0xbe07ee4a	-0.13274494
58	0x3e1d1d21	0.15343143
59	0xbdc3d65a	-0.09562369
60	0x3e8d9d0a	0.27658874
61	0xbc787229	-0.015163937
62	0xbd7bbca1	-0.061459187
63	0xbd1a6e67	-0.037702944
64	0xbe8563b9	-0.26052645
65	0xbe0df7ba	-0.13864031
66	0xbed597fb	-0.41717514
67	0x3efdf8ca	0.49603873
68	0xbebf0824	-0.37310898
69	0x3ea718b1	0.32636026
70	0xbed09552	-0.40738922
71	0xbe93ae77	-0.28844044
72	0xbeb1f36a	-0.34756023
73	0xbeefc0da	-0.46826822
74	0xbec7f201	-0.39051822
75	0x3e2d80ad	0.16943617
76	0x3c41c588	0.01182688
77	0xbef03acd	-0.4691986
78	0xbd63b52a	-0.055592693
79	0x3e06d682	0.13167766
80	0xbe2d52fd	-0.16926189
81	0xbea5d98b	-0.32392535
82	0x3e1a330f	0.1505854
83	0x3e2bf085	0.1679097
84	0xbef75466	-0.48306578
85	0x3d71c247	0.059023168
86	0x3db2a6f8	0.08723253
87	0xbe27768a	-0.16353813
88	0x3c0db06a	0.008648017
89	0xbd9fa8a2	-0.07795836
90	0xbd8f24ea	-0.06989463
91	0x3ee0c7e7	0.43902513
92	0x3eafb178	0.34315085
93	0x3e54ec85	0.2079335
94	0xbbfeb39d	-0.0077728764
95	0xbf04ae28	-0.5182824
96	0x3e270bdf	0.16313122
97	0x3e7bc258	0.24585855
98	0xbea44750	-0.32085657
99	0x3de937ff	0.113876335
100	0x3e9d6995	0.30744615
101	0x3ee3464f	0.4438958
102	0xbde72c68	-0.11287767
103	0x3ec01db3	0.3752266
104	0xbc177cae	-0.009246035
105	0x3ef586b2	0.47954327
106	0xbddca678	-0.10773939
107	0x3ec63e6b	0.38719496
108	0xbeaf087e	-0.34186167
109	0x3d3d5a66	0.04622879
110	0x3ec8a620	0.39189243
111	0x3eec5bd9	0.46163824
112	0xbee3c6e5	-0.44487682
113	0x3e198e76	0.14995751
114	0x3ef6f2ed	0.48232213
115	0x3e32f911	0.17477824
116	0xbf03f1b8	-0.5154071
117	0x3eb1e602	0.34745795
118	0xbea22b6e	-0.3167376
119	0xbd0dd442	-0.034626253
120	0xbdae68f1	-0.0851611
121	0xbe2d9ffa	-0.16955557
122	0xbcea2dae	-0.028586235
123	0xbe3e370a	-0.18575683
124	0x3eb6331a	0.35585862
125	0xbdcb06cd	-0.099134065
126	0xbd60c06f	-0.05487102
127	0x3e57242a	0.21009889
128	0x3e7368be	0.23770425
129	0xbc9d5a04	-0.019207962
130	0x3ef03b17	0.46920082
131	0x3e4eef55	0.20208485
132	0xbefe43e1	-0.49661162
133	0xbe8c0568	-0.27347875
134	0x3eab0f19	0.33409956
135	0x3d6f3a2a	0.05840508
136	0xbe968cf6	-0.2940442
137	0xbed775ca	-0.42082053
138	0xbe558dcf	-0.20854877
139	0x3efa5bf3	0.48898277
140	0xbd6f5257	-0.058428135
141	0xbe999821	-0.29998878
142	0x3e5b5bd9	0.21421756
143	0xbeff1c10	-0.49826097
144	0xbde1cc1d	-0.1102526
145	0x3eb75096	0.3580367
146	0x3d2d8ae5	0.04236879
147	0x3ee859be	0.45380968
148	0x3e93a768	0.28838658
149	0xbdd24505	-0.10267071
150	0x3e23ea32	0.16007307
151	0xbec12a88	-0.3772776
152	0xbd1bf59b	-0.038076025
153	0x3c9df1af	0.019280283
154	0x3eebd672	0.46062046
155	0x3e91c651	0.28471616
156	0xbe101872	-0.14071825
157	0xbe94c869	-0.2905915
158	0xbea2ee6f	-0.31822535
159	0x3e3a633a	0.18201914
160	0x3ebe0730	0.3711486
161	0xbecfb7a6	-0.405698
162	0xbea0e9c7	-0.31428358
163	0x3edee201	0.43531802
164	0xbeb7ee0f	-0.35923812
165	0x3e348bc1	0.17631437
166	0xbec6e93f	-0.38849828
167	0x3e905db6	0.28196496
168	0x3deaca31	0.11464346
169	0x3d4a803c	0.0494387
170	0xbd9619f2	-0.073291674
171	0x3ed0338b	0.40664324
172	0xbe656935	-0.22403415
173	0xbd354336	-0.04425355
174	0x3de62ef0	0.11239421
175	0xbe5f621f	-0.21814774
176	0xbdb066fe	-0.08613394
177	0xbe9b16d2	-0.30290848
178	0x3ea42c1c	0.32064903
179	0x3e6944d3	0.2278016
180	0xbca965a4	-0.020678349
181	0xbe908a53	-0.28230533
182	0x3ef31c42	0.47482497
183	0xbdb86231	-0.090031035
184	0xbe81bc8a	-0.25339156
185	0xbebe4cba	-0.37167913
186	0xbebcda79	-0.3688543
187	0x3de7cc95	0.11318318
188	0x3e8c8bcb	0.27450404
189	0xbe39deb5	-0.18151362
190	0x3e222677	0.15834986
191	0x3e1114d6	0.14168105
192	0xbe49d53b	-0.19710247
193	0xbe5f15e1	-0.2178569
194	0x3ed399cf	0.41328284
195	0xbd9c3b4c	-0.076284975
196	0xbd85b9b1	-0.065295584
197	0x3e05f639	0.13082208
198	0xbed46156	-0.4148051
199	0xbbe7f1bc	-0.0070783775
200	0xbeeaa8f3	-0.45832023
201	0x3eec2106	0.46118945
202	0xbe7c9e66	-0.24669799
203	0x3ed0f45f	0.4081144
204	0x3e8eed9c	0.27915657
205	0x3eab3c45	0.3344442
206	0xbdc31b40	-0.09526682
207	0x3ed24bcc	0.41073453
208	0x3e584c6b	0.21122901
209	0x3e6afa5c	0.22947067
210	0xbe9d20a4	-0.30688965
211	0xbeea73f1	-0.4579158
212	0x3ed79ac4	0.42110264
213	0xbe76c3a9	-0.24098076
214	0x3ee80ddb	0.4532307
215	0xbeb135b6	-0.3461129
216	0xbe86d78f	-0.26336333
217	0xbec5ba42	-0.38618666
218	0x3dd42735	0.10359041
219	0x3ed6c52e	0.4194731
220	0xbdb8e8b0	-0.090287566
221	0x3d1a32ae	0.03764599
222	0x3e806a68	0.25081182
223	0x3ef57e3c	0.47947872
224	0x3dbeaeee	0.09310709
225	0x3e950dbb	0.29112038
226	0xbe52b2b0	-0.20575976
227	0x3eccd0be	0.40003008
228	0xbef49f4a	-0.47777778
229	0x3e518ce6	0.20463905
230	0xbee8df4f	-0.4548287
231	0x3dae0df7	0.08498757
232	0x3ee9be0a	0.456528
233	0x3e37bdfe	0.1794357
234	0x3eb39a53	0.35078678
235	0xbea95654	-0.33073676
236	0xbf0384da	-0.5137459
237	0xbeadd135	-0.33948675
238	0xbe8b3364	-0.27187645
239	0xbd9da827	-0.07698088
240	0x3dfa3611	0.122173436
241	0x3e495706	0.19662103
242	0x3e84b7ed	0.25921574
243	0xbe83f3ea	-0.2577203
244	0xbd0a880b	-0.033821147
245	0x3ec9e7a5	0.39434543
246	0x3e3f20b3	0.18664818
247	0x3d94ba9f	0.07262158
248	0x3eafce36	0.34337014
249	0xbc643479	-0.013928526
250	0xbd3816e5	-0.04494371
251	0x3e95abdb	0.29232678
252	0x3f08498d	0.5323723
253	0xbeb1a3de	-0.34695333
254	0xbe43f766	-0.19137344
255	0x3b00117e	0.0019541676

gae.layers.0.0.module.W_val f4 [8, 32, 4]
0	0xbf0a9666	-0.5413574
1	0xbea5772c	-0.32317483
2	0xbefd12a1	-0.49428275
3	0xbe6141a9	-0.21997704
4	0xbe74dfca	-0.23913494
5	0xbee93d54	-0.45554602
6	0xbd98a149	-0.07452638
7	0xbd3cf9a9	-0.046136532
8	0x3bf50d84	0.007478418
9	0xbe9f64be	-0.31131548
10	0x3e845b23	0.25850782
11	0xbe86c1e3	-0.263198
12	0xbeafceb3	-0.34337386
13	0x3e3520d5	0.17688306
14	0xbe314dff	-0.1731491
15	0x3b607af4	0.0034252973
16	0xbc28b73c	-0.010297593
17	0xbe56623c	-0.20935911
18	0x3ef3af1d	0.47594538
19	0xbd8f8482	-0.07007696
20	0xbe61bf59	-0.2204565
21	0xbcfcd3e9	-0.030862765
22	0xbdd68b07	-0.10475736
23	0x3eb8f6b2	0.36125714
24	0xbdf728b3	-0.1206831
25	0xbd3b57f1	-0.045738164
26	0xbe95bfb2	-0.29247814
27	0x3e1965e0	0.14980268
28	0x3ea6cdbe	0.32578844
29	0x3ea6207c	0.3244666
30	0x3e669814	0.2251895
31	0x3d4a3ae4	0.04937257
32	0x3ed54433	0.41653594
33	0xbe257e6d	-0.16161509
34	0x3e2f074c	0.17092627
35	0x3e44ec07	0.19230662
36	0x3eebe491	0.4607282
37	0x3e0a6df7	0.13518511
38	0x3de1eaa5	0.11031083
39	0x3e884913	0.2661825
40	0x3e8f0607	0.27934286
41	0x3ed31d49	0.4123328
42	0x3e414673	0.1887453
43	0xbdb52917	-0.08845728
44	0xbea9745f	-0.33096597
45	0xbe97f690	-0.296803
46	0xbebcd66a	-0.36882335
47	0x3d9a253f	0.075266354
48	0x3e0a96a4	0.13534027
49	0x3e063b5a	0.13108578
50	0xbe2b21dc	-0.16712135
51	0xbea273bd	-0.31728926
52	0x3e401040	0.18756199
53	0x3e9fcdfa	0.31211835
54	0x3e876f8f	0.264523
55	0x3ebe7334	0.37197268
56	0xbe97a768	-0.29619908
57	0x3d7c6701	0.06162167
58	0xbea1727f	-0.31532666
59	0x3e25fd30	0.16209865
60	0xbe730b68	-0.2373482
61	0xbe1da053	-0.1539319
62	0xbd7a7a5e	-0.061151855
63	0xbe96e121	-0.29468635
64	0xbe866893	-0.2625166
65	0xbe9476cf	-0.28996894
66	0xbe968c90	-0.29404116
67	0xbe1b83d6	-0.1518701
68	0x3ef58096	0.47949666
69	0xbeb11028	-0.3458264
70	0xbe109944	-0.14120966
71	0xbec2cd76	-0.3804738
72	0x3ebb6c4b	0.36606058
73	0x3c1f915f	0.009739249
74	0x3ef5b959	0.47992972
75	0xbeed0cdf	-0.46298882
76	0x3ed684c3	0.41898164
77	0xbee19633	-0.44059905
78	0x3e98e1eb	0.29859862
79	0xbf077546	-0.5291332
80	0xbd5a8b3f	-0.05335545
81	0xbe01ce5a	-0.12676373
82	0x3e9f952c	0.31168497
83	0xbd537301	-0.05162335
84	0xbd6e0d6b	-0.058118265
85	0x3e67cef5	0.22637542
86	0xbe031b10	-0.12803292
87	0x3de7d87e	0.113205895
88	0x3eb3713e	0.35047334
89	0xbe9400a4	-0.2890674
90	0xbe67e46b	-0.22645728
91	0xbe0c3c3e	-0.13694856
92	0xbe4878ec	-0.19577378
93	0xbea5680e	-0.3230595
94	0xbca84efa	-0.020545471
95	0xbeba038a	-0.36330825
96	0x3d08b7ab	0.033378284
97	0x3eaec0af	0.3413138
98	0x3e93ad4b	0.2884315
99	0xbe5711f2	-0.2100294
100	0x3f08f9f9	0.5350643
101	0xbea03a68	-0.3129456
102	0xbdec937e	-0.115515694
103	0xbe184d45	-0.14873226
104	0xbec82815	-0.3909308
105	0xbdd29103	-0.10281565
106	0x3ea87240	0.32899666
107	0xbe89703b	-0.26843438
108	0xbe82c480	-0.25540543
109	0xbe594b16	-0.2122005
110	0x3ea5bcc8	0.3237059
111	0x3e2c8e0d	0.16851063
112	0xbecc67e5	-0.39923015
113	0x3eb0f851	0.3456445
114	0xbd410be2	-0.047130473
115	0x3e216d85	0.15764435
116	0x3ea93dff	0.33055112
117	0x3e565321	0.20930149
118	0x3b34e4f3	0.0027602285
119	0xbeb32fc4	-0.3499738
120	0xbf06afba	-0.5261189
121	0xbb1340fb	-0.0022469151
122	0xbe944c63	-0.28964528
123	0x3d232823	0.0398332
124	0xbe979908	-0.2960894
125	0x3c7689ac	0.015047472
126	0xbe90628b	-0.28200182
127	0x3f01074a	0.5040175
128	0x3d490c0f	0.049083766
129	0xbef038bb	-0.46918282
130	0xbeb28333	-0.34865722
131	0x3efa9f64	0.4894973
132	0x3ef813fd	0.4845275
133	0x3e726613	0.2367175
134	0xbea4a2be	-0.32155412
135	0x3e24be6a	0.16088262
136	0xbd5cc1b8	-0.053895682
137	0xbe972fdf	-0.2952871
138	0xbed130f8	-0.40857673
139	0x3dcb918b	0.099398695
140	0xbef233a3	-0.4730502
141	0x3d7f7a7a	0.062372662
142	0xbe09c060	-0.13452291
143	0xbeb017fa	-0.34393293
144	0x3f0112cd	0.5041931
145	0x3dfa73a2	0.122290865
146	0x3df1d060	0.118073225
147	0x3e16088c	0.14651698
148	0x3e3fe096	0.18738016
149	0xbe4e231f	-0.20130585
150	0x3df5fcf8	0.120111406
151	0xbe6f1cb6	-0.23350796
152	0xbe7fd9be	-0.24985406
153	0xbdb18225	-0.08667401
154	0x3edf85f0	0.43656874
155	0xbe07201b	-0.13195841
156	0x3e337b8b	0.17527597
157	0xbe346185	-0.17615326
158	0x3e4ad9ee	0.19809696
159	0x3e0a236f	0.1349008
160	0x3cdd7c07	0.02703668
161	0xbeb26bbf	-0.3484783
162	0x3ecd1bad	0.40060177
163	0x3eadee01	0.33970645
164	0xbdff699c	-0.12471315
165	0xbe7e9654	-0.24862033
166	0x3ee131dd	0.43983355
167	0xbe70d155	-0.23517354
168	0xbdd75e07	-0.10515981
169	0xbed1d16a	-0.40980083
170	0x3ee013fb	0.43765244
171	0xbe80b656	-0.2513911
172	0xbea0a10b	-0.31372866
173	0x3f0b07a7	0.5430855
174	0xbf0674ca	-0.52521956
175	0xbd85d4ca	-0.06534727
176	0xbe572bbf	-0.21012782
177	0x3ee07f59	0.4384716
178	0xbe2b835c	-0.16749328
179	0xbe7ecaad	-0.24882002
180	0xbe52aa22	-0.20572713
181	0x3baecac3	0.0053342297
182	0x3edd421e	0.43214506
183	0xbe2d7791	-0.16940142
184	0x3ed102d6	0.40822476
185	0xbe76c0db	-0.24097006
186	0x3d97562d	0.073894836
187	0xbecec1d4	-0.40382254
188	0xbe64c35b	-0.22340147
189	0x3eb785bc	0.3584422
190	0xbeecd399	-0.46255186
191	0xbe27906b	-0.16363685
192	0x3e51467e	0.20437047
193	0xbc2b013b	-0.010437305
194	0x3ecd2a1b	0.40071186
195	0x3eb7f12e	0.35926193
196	0x3ec71ecc	0.38890684
197	0xbe9205d2	-0.28520066
198	0xbee272be	-0.44228166
199	0xbef91358	-0.4864757
200	0xbe8c25a0	-0.27372456
201	0xbd36c768	-0.044623762
202	0x3e9a7a5b	0.30171475
203	0x3ea98ecb	0.33116755
204	0x3f0060eb	0.50147885
205	0xbed0f52f	-0.4081206
206	0x3ca97e98	0.020690247
207	0xbec139ec	-0.37739503
208	0xbedd13f9	-0.431793
209	0x3ef50df8	0.4786222
210	0xbe979774	-0.29607737
211	0xbe981c9f	-0.29709336
212	0xbd38e6cb	-0.045141976
213	0xbdc97417	-0.098365955
214	0x3e21bab5	0.1579388
215	0x3d7a96c3	0.061178934
216	0xbe9aa60e	-0.30204815
217	0xbeecbb48	-0.46236634
218	0x3d90d26d	0.070713855
219	0x3e4bb30a	0.19892517
220	0x3beb34e4	0.007177936
221	0xbeb7e2cf	-0.3591523
222	0xbe8dd325	-0.27700153
223	0xbdbe1780	-0.09281826
224	0xbe876dd3	-0.26450977
225	0x3e08d995	0.13364251
226	0xbd83e472	-0.06440057
227	0xbed7149a	-0.42007905
228	0xbe5f054a	-0.21779361
229	0xbe197cb5	-0.14988978
230	0xbeb6fde0	-0.35740566
231	0x3e32732f	0.17426752
232	0x3ec65390	0.38735628
233	0x3cd92746	0.026507985
234	0xbed3ac86	-0.41342562
235	0xbe6309a5	-0.22171648
236	0x3efb6be5	0.49105754
237	0xbe1bb058	-0.15203989
238	0x3ea707b8	0.32623076
239	0xbe6dda31	-0.23227765
240	0x3dd47a60	0.10374904
241	0x3eb19171	0.34681275
242	0xbea3833c	-0.3193606
243	0xbe089839	-0.13339318
244	0x3e195822	0.14975026
245	0xbecc6615	-0.39921632
246	0x3eaf9483	0.34292993
247	0xbc0aeadf	-0.008478849
248	0x3df7d7c6	0.121017024
249	0x3e77fd29	0.24217667
250	0xbe8b454a	-0.272013
251	0x3e908cf3	0.28232536
252	0x3e854682	0.26030356
253	0x3e51984a	0.2046825
254	0x3ec66393	0.38747844
255	0xbcdb14d4	-0.02674333

gae.layers.0.0.module.W_out f4 [8, 4, 32]
0	0x3dd01ae0	0.10161376
1	0xbd3bf673	-0.04588933
2	0x3dd04b3d	0.101706006
3	0xbd1e58a8	-0.038658768
4	0x3e601353	0.21882372
5	0x3d0e913a	0.034806468
6	0xbe48a931	-0.19595791
7	0x3e480d5b	0.19536345
8	0x3d4e3aa6	0.0503489
9	0xbe1122f6	-0.14173493
10	0xbda2dece	-0.07952653
11	0x3e0a6968	0.13516772
12	0x3d151259	0.03639445
13	0x3e200a90	0.1562903
14	0xbd8e0996	-0.06935422
15	0xbd0844fe	-0.03326892
16	0x3d523e35	0.051328856
17	0xbe0db380	-0.13838005
18	0x3ce11d56	0.027479809
19	0xbd6c1c31	-0.057644073
20	0x3e0fa09c	0.14026111
21	0xbd29e2b6	-0.041475974
22	0xbd7aba53	-0.06121285
23	0xbdc5b802	-0.09654237
24	0x3dabd1e1	0.083896406
25	0xbda492b4	-0.08035794
26	0xbdd25601	-0.1027031
27	0x3da49428	0.08036071
28	0xbdc367b3	-0.095412634
29	0xbdd229b1	-0.10261858
30	0xbe05c508	-0.13063443
31	0x3e0c4d8d	0.13701458
32	0x3d2ef72c	0.04271619
33	0xbc95f04c	-0.018303059
34	0x3e037b2e	0.12839958
35	0x3d4b6697	0.049658384
36	0xbe5bd04a	-0.21466175
37	0xbe067977	-0.13132273
38	0xbd887e86	-0.066647574
39	0x3db17039	0.08663983
40	0xbc5c2cf6	-0.013438454
41	0xbdc5e202	-0.09662248
42	0xbd5442ae	-0.051821403
43	0xbdd9d4a0	-0.10636258
44	0x3e2098f0	0.15683341
45	0xbe213060	-0.1574111
46	0xbe0e4a9f	-0.13895653
47	0x3e3fca28	0.1872946
48	0x3e4bab84	0.19889647
49	0xbc9c41ee	-0.019074406
50	0x3d361583	0.04445411
51	0x3e130c15	0.14360078
52	0x3d41eb45	0.04734351
53	0x3ddd9e9e	0.108212695
54	0x3e6ba36f	0.23011564
55	0xbc8cbd5f	-0.017180143
56	0x3bc4efe1	0.006010041
57	0xbcd65a62	-0.026166145
58	0xbdda98f6	-0.10673706
59	0xbcadd833	-0.021221256
60	0xbe29c3d5	-0.1657861
61	0x3d47a5ed	0.048742224
62	0x3e1cb9a0	0.15305185
63	0xbe305e32	-0.17223433
64	0xbe30ab74	-0.17252904
65	0x3d681c1b	0.05666743
66	0xbdbefda3	-0.09325721
67	0xbcce2206	-0.025162708
68	0x3d0c1220	0.034196973
69	0xbdad4ba5	-0.08461694
70	0xbe1b3918	-0.15158498
71	0x3db2440e	0.08704387
72	0x3dcf5210	0.10123074
73	0xbd16ca50	-0.036814034
74	0xb963f410	-0.00021739327
75	0x3e13891a	0.14407769
76	0xbca5363b	-0.02016746
77	0x3db66a51	0.08906997
78	0xbd9586b5	-0.07301084
79	0xbdb6df3c	-0.08929297
80	0xbda85139	-0.08218617
81	0x3df19f9b	0.117980205
82	0x3d5871bd	0.052842844
83	0x3e2ccc47	0.168748
84	0xbc353f97	-0.011062524
85	0xbc3f0291	-0.011658327
86	0xbe48c3c4	-0.19605929
87	0xbc41a06a	-0.011818031
88	0xbe06d864	-0.13168484
89	0x3e1a6738	0.15078437
90	0x3da1a4fe	0.07892798
91	0x3ac91378	0.0015340885
92	0x3e31ecc1	0.1737547
93	0x3dd35a78	0.1031999
94	0x3e468873	0.19387989
95	0xbca5c443	-0.020235186
96	0x3d97b6a2	0.07407881
97	0xbe066fc2	-0.1312857
98	0xbe4f3830	-0.20236278
99	0xbd724a3a	-0.05915282
100	0xbdeb8c98	-0.115014255
101	0xbc8141a3	-0.015778368
102	0x3dd79a53	0.10527482
103	0x3deea2d9	0.116521545
104	0x3e24d054	0.16095096
105	0xbc76d468	-0.01506529
106	0xbda5945a	-0.080849364
107	0x3d1e05eb	0.038579863
108	0x3c713875	0.014722933
109	0x3d878479	0.06617064
110	0xbdaa423c	-0.083134145
111	0xbca7015c	-0.02038639
112	0x3dc7341c	0.09726736
113	0x3e1a5047	0.15069686
114	0xbdc94273	-0.09827127
115	0xbd46a25c	-0.04849468
116	0x3cd78d48	0.026312485
117	0x3d3df123	0.046372544
118	0x3da497da	0.08036776
119	0x3da62177	0.08111852
120	0xbdcda931	-0.10042036
121	0xbdc3dd3e	-0.09563683
122	0x3e00752b	0.12544696
123	0xbdc66d3d	-0.09688804
124	0x3df1c08d	0.11804304
125	0xbdadf3a9	-0.0849374
126	0xbe0947a3	-0.13406233
127	0xbd075a59	-0.033045147
128	0xbddeaa96	-0.108723804
129	0xbdb1a1c9	-0.08673436
130	0xbd482837	-0.048866477
131	0xbd2e0eef	-0.04249471
132	0xbdbc0280	-0.09180164
133	0xbcd09cbe	-0.025465365
134	0x3e2c765d	0.16842027
135	0x3df46179	0.11932654
136	0x3d961da3	0.073298715
137	0xbdcde10f	-0.10052692
138	0xbe0f5d5a	-0.14000455
139	0xbdf7c79a	-0.12098618
140	0x3c058012	0.00814821
141	0x3af4ba43	0.0018671233
142	0xbe102e07	-0.14080058
143	0xbcac905d	-0.021064932
144	0x3d866f9f	0.06564259
145	0x3e34cd03	0.17656331
146	0xbe1f42fa	-0.15552893
147	0x3e323836	0.17404255
148	0xbd74cffd	-0.059768666
149	0x3e221c36	0.15831074
150	0x3d8b6375	0.06806079
151	0x3cf0acaa	0.029379208
152	0xbdd0e083	-0.10199072
153	0xbd1c5f1e	-0.03817665
154	0xbe0352bf	-0.12824534
155	0xbe1d62bd	-0.15369697
156	0x3cd734d6	0.026270311
157	0xbdb62a31	-0.08894766
158	0xbe1bf0ca	-0.15228572
159	0xbca91cfb	-0.020643702
160	0xbd9e21e4	-0.07721308
161	0xbd42eb28	-0.047587544
162	0xbda7cca6	-0.081933305
163	0x3d424204	0.04742624
164	0xbe3ea93d	-0.18619247
165	0x3dafae24	0.085781366
166	0x3dd3bc22	0.10338618
167	0xbd281ac6	-0.04104116
168	0x3deeb800	0.11656189
169	0xbd9104d7	-0.07081001
170	0xbdf84b3b	-0.12123724
171	0x3e29b162	0.16571572
172	0xbe2a1785	-0.16610534
173	0x3e3a2ff1	0.1818235
174	0xbbc80869	-0.006104518
175	0x3de80d75	0.11330692
176	0x3d43dd8a	0.047818698
177	0x3dc106ec	0.09425148
178	0xbdd56fcf	-0.104217164
179	0x3c31af46	0.010845011
180	0x3d76d520	0.060261846
181	0x3d016473	0.031589936
182	0x3c39e7a2	0.0113467295
183	0xbe12ba68	-0.14328921
184	0x3b0259a4	0.0019889856
185	0x3e005403	0.12532048
186	0xbe17620e	-0.14783499
187	0xbd037bb1	-0.032100383
188	0x3de4f12c	0.111788124
189	0x3e22107f	0.15826605
190	0xbcbffbdc	-0.023435526
191	0xbe3c47ac	-0.18386716
192	0x3db4ee4b	0.08834513
193	0x3d7e145f	0.062031146
194	0x3dffdc06	0.12493138
195	0x3e01337f	0.126173
196	0x3e0d14bc	0.13777441
197	0xbcffdead	-0.03123411
198	0xbc4ee21f	-0.012627154
199	0x3d5ba758	0.05362639
200	0x3dda6a82	0.10664846
201	0x3e09a166	0.13440475
202	0x3d3c3c2b	0.04595582
203	0xbd325cc0	-0.043545485
204	0xbce10c41	-0.027471663
205	0xbd6b8ea8	-0.057509094
206	0xbc279431	-0.010228203
207	0x3e08902d	0.13336249
208	0x3e199152	0.14996842
209	0xbd9b471d	-0.07581923
210	0xbe05291b	-0.13003962
211	0x3db8c7fd	0.0902252
212	0x3dbb51db	0.09146472
213	0x3e07fd0f	0.13280128
214	0xbda0bdcf	-0.07848703
215	0x3e2639c0	0.16232967
216	0x3e134867	0.14383088
217	0x3e3f4665	0.18679197
218	0xbde791e4	-0.11307123
219	0x3e4aeecd	0.19817658
220	0xbdadbddb	-0.08483478
221	0x3c0d3440	0.008618414
222	0xbc6860cd	-0.014183235
223	0xbc5c264e	-0.013436867
224	0xbdd6c18c	-0.10486135
225	0xbdfff67a	-0.124981835
226	0x3dfc5799	0.123213954
227	0x3d6ef9a9	0.058343563
228	0x3e517eba	0.20458499
229	0xbe03ba30	-0.12863994
230	0xbe84ca00	-0.25935364
231	0x3e2997c5	0.16561802
232	0xbd61a76d	-0.05509131
233	0x3e265753	0.16244249
234	0xbdc6f533	-0.09714737
235	0x3d32bb4b	0.043635648
236	0x3db300f0	0.08740413
237	0xbca20483	-0.019777542
238	0xbd91578f	-0.070967786
239	0xbcc1a4fb	-0.02363824
240	0xbd1bc09d	-0.038025487
241	0xbe2d9fbe	-0.16955468
242	0xbe02f631	-0.12789227
243	0x3e313146	0.17303953
244	0xbe39055a	-0.18068448
245	0xbe17dbc7	-0.14829932
246	0x3e20363b	0.15645687
247	0x3c10ec43	0.008845392
248	0x3db83e3c	0.08996245
249	0xbc211aeb	-0.009833078
250	0x3de1d15b	0.110262595
251	0x3e5bbffd	0.21459956
252	0xbdbfd750	-0.093672395
253	0x3db679b9	0.089099355
254	0x3d147411	0.036243502
255	0x3d94624f	0.072453134

gae.layers.0.1.normalizer.weight f4 [32]
0	0x3e352de0	0.17693281
1	0xbdda849b	-0.10669824
2	0x3ddf21bf	0.108951084
3	0xbd88cf8b	-0.06680211
4	0x3d882044	0.06646779
5	0xbe1a8bb6	-0.15092358
6	0xbbb8b827	-0.005637187
7	0xbc1d796e	-0.009611471
8	0xbe148023	-0.14502005
9	0xbd8fae81	-0.07015706
10	0x3dcc1d80	0.09966564
11	0xbe021b0d	-0.12705632
12	0xbb302ddb	-0.00268828
13	0xbca42f09	-0.02004196
14	0x3d1c5458	0.038166374
15	0x3e1b17ba	0.1514577
16	0xbe3bcba8	-0.18339407
17	0xbd0cbc44	-0.03435923
18	0x3d49b583	0.04924537
19	0xbe36bc93	-0.17845373
20	0xbdbdd58c	-0.092692465
21	0xbcc91f0c	-0.024550937
22	0xbd7a384d	-0.06108885
23	0x3dc3f807	0.09568792
24	0xbdd94666	-0.106091306
25	0x3e0a2120	0.13489199
26	0xbbc244ee	-0.005928627
27	0x3dc495ee	0.09598909
28	0xbe2d6cea	-0.16936079
29	0x3e264a7f	0.16239356
30	0xbe1eea7a	-0.15519133
31	0xbe36a4fc	-0.17836374

gae.layers.0.1.normalizer.bias f4 [32]
0	0xbd3a0755	-0.04541715
1	0xbb155a88	-0.0022789557
2	0xbd3f6941	-0.046731237
3	0x3de46f3b	0.11154028
4	0xbe0563df	-0.13026379
5	0xbd3e1251	-0.046404187
6	0xbcbac974	-0.022801138
7	0x3e3a4406	0.18190011
8	0x3cd97dea	0.026549298
9	0xbd6f3ac9	-0.05840567
10	0x3e27d8a5	0.16391237
11	0x3c792864	0.015207384
12	0x3e0cd1b5	0.13751872
13	0xbcc60313	-0.024171388
14	0xbd917c96	-0.07103841
15	0xbdb89845	-0.09013418
16	0xbdae0399	-0.0849678
17	0x3c8db59e	0.017298516
18	0x3dc24178	0.094851434
19	0xbce3598d	-0.027752662
20	0x3cf779fc	0.030209534
21	0xbc8a44e5	-0.016878555
22	0x3db56a13	0.08858123
23	0x3db4b0cf	0.08822786
24	0xbe0ccac5	-0.13749225
25	0xbe03171a	-0.12801781
26	0xbd3d965d	-0.046285976
27	0x3d80a97d	0.06282327
28	0x3d4fba51	0.050714795
29	0x3dec1f17	0.115293674
30	0x3e1ce40c	0.15321368
31	0x3ad0ccef	0.0015930216

gae.layers.0.2.module.0.weight f4 [512, 32]
0	0xbdf0c697	-0.11756628
1	0x3d5503b9	0.052005503
2	0xbbd2ff53	-0.0064391284
3	0xbdd0327a	-0.10165878
4	0x3d417b52	0.047236748
5	0x3ca4f777	0.020137532
6	0x3e201c27	0.1563574
7	0x3e399667	0.1812378
8	0x3e15ac50	0.14616513
9	0x3e43e0ca	0.19128719
10	0x3de80863	0.11329725
11	0x3c6b0df5	0.014346589
12	0x3def7013	0.11691298
13	0x3dd10fc6	0.10208087
14	0x3e047e7d	0.12938876
15	0xbd2d4dc2	-0.042310484
16	0x3d4ee9c4	0.050515905
17	0xbe29df6a	-0.16589132
18	0xbdf3def9	-0.11907763
19	0xbd5b6341	-0.053561453
20	0xbdd29044	-0.10281423
21	0xbdadf7d1	-0.08494533
22	0xbe0c5598	-0.13704526
23	0xbe1f077b	-0.15530197
24	0xbc75f612	-0.015012281
25	0xbe1befb3	-0.15228157
26	0xbe0ae124	-0.13562447
27	0xbe17a6de	-0.14809749
28	0x3e1099c7	0.14121161
29	0xbc98e1cc	-0.018662356
30	0xbda8bf41	-0.08239604
31	0x3bc486bc	0.005997507
32	0x3dfb494a	0.12269838
33	0x3e148e65	0.14507444
34	0x3de30c3e	0.110863194
35	0x3dfb85af	0.122813575
36	0xbc9dff6d	-0.019286836
37	0xbd843339	-0.064550824
38	0xbd1dae27	-0.038496163
39	0xbda82f5c	-0.08212158
40	0xbe37d3c3	-0.17951874
41	0x3db003da	0.085944846
42	0x3d62090e	0.055184416
43	0x3de22e2c	0.11043963
44	0xbd5f3317	-0.054492082
45	0x3da607c5	0.08106951
46	0xbd359c49	-0.0443385
47	0xbdd57cd3	-0.10424199
48	0xbb3c11e0	-0.0028697178
49	0xbe232e64	-0.15935665
50	0xbd0467b7	-0.032325473
51	0x3db76123	0.08954074
52	0x3e15d99e	0.14633796
53	0xbdb1b0f9	-0.08676333
54	0xbe03ec73	-0.12883167
55	0xbe1693c5	-0.14704807
56	0xbdc147e3	-0.094375394
57	0xbe04dc2a	-0.12974611
58	0xbd56d49f	-0.052448865
59	0x3cc69339	0.024240123
60	0x3d68dd11	0.05685145
61	0xbd1b607f	-0.037933823
62	0x3e072682	0.13198283
63	0x3d6afa71	0.057367746
64	0xbe0b78e9	-0.13620342
65	0x3dcc46a3	0.099744104
66	0xbd5f1f33	-0.054473113
67	0xbbe916c1	-0.007113308
68	0x3d4d96d4	0.05019267
69	0xbe114e8b	-0.14190118
70	0xbdd40a87	-0.103535704
71	0x3e09aacd	0.13444062
72	0x3dfe7f82	0.12426664
73	0x3e06ace0	0.13151884
74	0x3e279433	0.16365127
75	0xbb6df0b0	-0.003630679
76	0xbdcbbda8	-0.099482834
77	0xbdc5fc8d	-0.09667311
78	0x3d2ce672	0.042211957
79	0x3dc21504	0.09476665
80	0x3d09f5d7	0.033681717
81	0xbd9b238d	-0.0757514
82	0x3c3948c6	0.011308854
83	0x3d565568	0.052327543
84	0xbdc89bca	-0.097953394
85	0x3ddf6b37	0.109091215
86	0xbe1c23b8	-0.15248
87	0xbdd9bc1d	-0.10631583
88	0xbc4df8a8	-0.012571491
89	0x3d4c6eff	0.04991054
90	0x3df94a5d	0.12172387
91	0x3e0a6895	0.13516457
92	0xbe0ad1a2	-0.13556531
93	0xbd9d5be6	-0.07683544
94	0x3df3cd24	0.11904362
95	0x3d874d2c	0.06606516
96	0x3deb6cb1	0.114953406
97	0x3e1e3dfa	0.1545333
98	0xbe2ea90d	-0.17056675
99	0xbdf62b82	-0.12020017
100	0x3dfa3b5c	0.12218353
101	0xbbfce284	-0.0077174325
102	0x3d65ccff	0.056103703
103	0xbe183b2d	-0.14866324
104	0xbdf0dc20	-0.117607355
105	0xbe074412	-0.1320956
106	0xbd9d2fb7	-0.076751165
107	0x3cd96b50	0.026540428
108	0xbcc13ceb	-0.023588618
109	0xbd314836	-0.043281756
110	0xbe313d86	-0.17308626
111	0x3dda5d3c	0.10662314
112	0x3d8654a3	0.06559112
113	0x3e59ebac	0.21281308
114	0x3c32ec6a	0.010920623
115	0x3e386f60	0.18011236
116	0x3e55b07f	0.20868109
117	0xbe1977d4	-0.14987117
118	0xbbee5ab5	-0.0072739967
119	0xbc953923	-0.018215721
120	0xbdc11c51	-0.09429229
121	0xbbe5cf9a	-0.0070132734
122	0x3d9443cc	0.07239494
123	0xbe4e61f2	-0.2015455
124	0xbddbfe99	-0.1074192
125	0x3e3d179e	0.1846604
126	0xbdcf2d9a	-0.1011612
127	0xbdded97a	-0.10881324
128	0xbe0f7766	-0.1401039
129	0xbdabfa6a	-0.08397372
130	0x3d897ee7	0.06713658
131	0x3e2b16e4	0.16707951
132	0x3e2f7960	0.17136145
133	0xbe2aa0aa	-0.16662851
134	0x3ce4cba3	0.027929133
135	0x3d9c0b40	0.07619333
136	0x3d9744ac	0.07386145
137	0x3dfcefd7	0.12350433
138	0x3d76ae10	0.060224593
139	0x3e1f7ae1	0.15574218
140	0x3cb80a60	0.022465885
141	0xbd6ced49	-0.05784348
142	0x3d2f01ac	0.042726204
143	0x3d8df363	0.06931188
144	0x3e28c8f4	0.16482908
145	0xbdaa58ef	-0.08317744
146	0x3ddc32b4	0.10751858
147	0x3dfe6164	0.124209195
148	0x3e3af221	0.18256427
149	0x3d5c7a56	0.053827606
150	0x3cd41d11	0.025892766
151	0xbd2c5c84	-0.042080417
152	0xbd6b0224	-0.05737509
153	0x3d40e562	0.047093756
154	0xbd51a867	-0.05118599
155	0xbdade91e	-0.08491729
156	0xbd888225	-0.06665448
157	0xbd96a2ad	-0.07355247
158	0xbd9fe6f0	-0.0780772
159	0xbd41f195	-0.04734953
160	0xba5e727c	-0.00084856874
161	0x3c2bfd14	0.01049735
162	0x3e2c41cc	0.16821975
163	0xbd534162	-0.051576026
164	0xbe2520f9	-0.1612586
165	0xbe285212	-0.16437557
166	0xbd4764b9	-0.04868004
167	0x3db5f9c0	0.08885527
168	0xbca54639	-0.020175086
169	0xbdb904ab	-0.090340935
170	0x3d071378	0.03297755
171	0x3e4bff67	0.19921647
172	0xbd59f852	-0.053215332
173	0x3c8e04df	0.017336307
174	0x3d059752	0.032615013
175	0xbdc70f8c	-0.09719762
176	0x3d9261fa	0.07147594
177	0xbdfcc94d	-0.123430826
178	0xbe0808a8	-0.13284552
179	0xbd8188ca	-0.063249186
180	0x3e221772	0.15829256
181	0x3d808bbb	0.062766515
182	0xbd1d5d34	-0.038418964
183	0xbd91e709	-0.071241446
184	0x3cdd210d	0.026993299
185	0xbe21f12e	-0.15814659
186	0xbd8bffe6	-0.06835918
187	0xbdd6d800	-0.104904175
188	0x3ded332f	0.11582028
189	0xbc870eaa	-0.016486485
190	0xbd25527e	-0.040361874
191	0xbde7c145	-0.1131616
192	0xbe278ba0	-0.16361856
193	0x3e3184e6	0.17335853
194	0xbd8c3638	-0.06846279
195	0x3d9d3865	0.07676772
196	0xbe25a25f	-0.16175221
197	0x3d033741	0.032035116
198	0x3e0d068c	0.13772029
199	0x3e2637f6	0.16232285
200	0xbcbf526d	-0.023354733
201	0xbe14e68e	-0.14541075
202	0xbd697f23	-0.057006013
203	0xbe349048	-0.17633164
204	0x3d63e36d	0.055636812
205	0x3e03f142	0.12885001
206	0xbe2c30b2	-0.16815451
207	0x3db5d3ff	0.08878326
208	0xbdedf122	-0.11618258
209	0xbdd9fc98	-0.106438816
210	0xbd8fea3b	-0.07027098
211	0x3e1f7b2c	0.1557433
212	0xbd891f14	-0.06695381
213	0x3db8f1b8	0.09030479
214	0x3d61d0c2	0.055130728
215	0xbc93688b	-0.017994186
216	0x3ac6419a	0.0015125752
217	0xbc85e42e	-0.016344156
218	0x3c942eb8	0.018088683
219	0xbd83fc2e	-0.06444584
220	0x3d3d81bb	0.0462663
221	0x3d9e0ad0	0.07716906
222	0x3e0dd1a1	0.13849498
223	0xbc9b3152	-0.018944416
224	0x3e16eece	0.14739534
225	0x3dd2e625	0.10297803
226	0x3a878c05	0.0010341412
227	0xbd991497	-0.0747463
228	0xbcb9adac	-0.022665821
229	0xbd01ef8c	-0.03172259
230	0x3e1823dd	0.14857431
231	0x3d21d1c5	0.039506692
232	0xbe07af35	-0.1325043
233	0x3e3c7a66	0.18406066
234	0x3e111ed0	0.1417191
235	0x3e264e13	0.1624072
236	0x3d323076	0.043503247
237	0x3e1d4d51	0.15361525
238	0xbdc9079a	-0.09815903
239	0xbdff1d56	-0.12456767
240	0xbdfaf941	-0.12254573
241	0xbd536d9f	-0.051618215
242	0xbd85f2d5	-0.06540457
243	0xbde29916	-0.11064355
244	0x3cd22f21	0.025657238
245	0x3e1a2bf8	0.15055835
246	0x3df06de5	0.11739711
247	0x3c3a2db7	0.011363438
248	0x3df42099	0.1192028
249	0xbe2c4fa6	-0.16827258
250	0x3e32cab6	0.1746014
251	0xbdab310a	-0.08358963
252	0xbc33f6f9	-0.010984176
253	0x3d8e8f61	0.06960941
254	0xbd7f0256	-0.062258087
255	0x3e249219	0.16071357
