checkpoints/braking/best_params.npy (npy, 43920 bytes, 1 tensors)

array f8 [5474]
000000 4d ee c1 ee 3d cc b2 bf f4 3e fe c2 8f 43 c4 bf
       -0.07342898444215358 -0.15831181546354112
000010 98 52 51 0f 20 11 c3 3f 17 10 67 45 72 0b 85 bf
       0.14896012065823494 -0.010275738471030178
000020 1a 5d 3e 17 0e 4d b6 3f d1 23 80 c8 cb 74 c3 bf
       0.0871132666346636 -0.1520018319136214
000030 e0 42 5d 3a 95 9c b5 3f 76 f2 ad 8f 47 07 b4 bf
       0.08442051577481946 -0.07823607690620257
000040 84 f9 02 a3 8a 06 c2 3f 44 47 0e 0a bb 74 c9 3f
       0.14082463225890873 0.1988748358822311
000050 75 ed b0 54 28 15 bf 3f c3 c8 bd 53 31 c7 3f bf
       0.12141658847479227 -0.00048489527011165103
000060 5e 91 85 5d 4a 42 93 bf fa 62 25 57 37 0a a0 3f
       -0.01880756564914187 0.03132794321817829
000070 ff 83 3c fd 71 20 90 3f 49 db 37 19 d8 be a2 3f
       0.015748768884012773 0.03661227519835692
000080 c6 4e fe 4f 40 39 c7 3f 81 17 57 51 4b 41 c6 bf
       0.18143466859748097 -0.17386762115182466
000090 b9 c1 bc c9 b1 ee c3 3f 4d cd 57 a3 5a 94 b2 bf
       0.15572187757926573 -0.07257620323053011
0000a0 cc bd bd 91 3f f1 c1 3f 3c da 44 35 58 2d c2 bf
       0.14017481437939094 -0.14200880623839562
0000b0 00 88 9b f0 92 88 48 bf f6 99 24 dd 46 55 b3 bf
       -0.000748702762589426 -0.07551997088430781
0000c0 29 7f 88 ab eb af c1 3f e3 fa 3c 3a a3 b5 c5 3f
       0.13818117023128565 0.16960563987409846
0000d0 09 cc 6d c5 6b 61 b1 3f 26 e7 61 de 0d fb c8 3f
       0.06789277620355007 0.19516156538502932
0000e0 e0 4d 41 28 b6 be 63 bf 74 14 30 75 78 5b c8 3f
       -0.0024102742918701153 0.19029145929394853
0000f0 0f 96 ea 72 39 4c c4 bf 68 c2 d4 2a fe 0d c4 3f
       -0.1585761843791009 0.15667702761995206
000100 30 0a 4d 8c 11 b1 85 3f c5 93 f9 81 9f 7a c1 bf
       0.010591637701172635 -0.13655465933257296
000110 0a 4c e3 f0 cc 3d c7 bf f7 3d a1 9e 66 59 96 bf
       -0.1815735031328532 -0.02182541220855502
000120 cb a5 fd c4 af 51 7a 3f f1 11 8e e2 1a 1f c8 bf
       0.00642555866202472 -0.18844924986127823
000130 1b d0 9b 5c 4d d9 be bf 0a c6 0a 4f cb d5 b5 3f
       -0.12050326834634044 0.08529349021662128
000140 41 ea bc c3 d5 fb c1 3f e1 dc a0 80 ae 2b a0 3f
       0.14049789483563482 0.03158326454325234
000150 35 20 b4 fa 1a b4 b7 bf 8d f9 42 e2 7b a8 a8 3f
       -0.09259194012349854 0.048160430307223036
000160 2c c7 9d e9 37 be c3 bf c8 15 57 68 10 b1 8f 3f
       -0.15424250514075177 0.015474441703996158
000170 1c 2e 83 40 9e 76 c8 3f cc ec fd 2f d0 65 b0 bf
       0.19111993932743665 -0.06405354663540946
000180 b0 bc 2b 03 95 1a a4 3f 12 8d 56 7f 52 7b b8 3f
       0.039265305172983545 0.09563174828376855
000190 a7 cf 01 17 6b 6f 7f 3f a4 64 3f ff ea e2 af bf
       0.007674616164980031 -0.06227812162223614
0001a0 17 30 67 dd 3a 37 9e bf 81 5e c1 c4 8a 01 b6 3f
       -0.02950756050431388 0.08596103004071588
0001b0 da 10 f5 08 70 09 c3 bf 22 c5 c8 90 59 be c3 3f
       -0.14872551381461713 0.15424651689094399
0001c0 e4 c2 ce 48 3a 25 75 bf 77 a1 57 1d aa 00 c4 3f
       -0.005162456201035257 0.15627027924280032
0001d0 5d ba 6f d0 d4 33 b0 bf 58 5b c2 05 87 b6 b7 bf
       -0.06329088295726977 -0.09262889757733939
0001e0 19 29 04 6c 8d 18 8a bf 72 8f 23 c9 5a 6a bb bf
       -0.012742142542738354 -0.1070915928899561
0001f0 7c f4 61 9c 8c 48 c0 3f e7 f5 97 67 7d f5 a1 bf
       0.12721402774687707 -0.03507606401033652
000200 23 c5 21 c1 00 b0 c4 bf 17 13 c3 72 0d b7 c2 bf
       -0.16162118368405584 -0.1462113199578645
000210 0a 42 ff e2 38 63 b0 3f 37 b5 ba ae e2 23 b5 3f
       0.06401401082917615 0.08257881894924855
000220 3f 2b f3 17 29 b9 b7 bf fa ad d7 42 d0 3b a3 bf
       -0.09266907534326395 -0.037565715941891356
000230 72 44 01 2c b1 4e c7 bf ba b0 1a 4e 85 64 c3 bf
       -0.18208899162940245 -0.1515051490181401
000240 d6 7a 1e 85 08 5f b0 3f f2 25 2a c0 57 45 b1 3f
       0.06395009279229255 0.06746433679122513
000250 da 5a bc 87 b3 49 b0 3f 6d e9 fa 15 9d ed ad 3f
       0.06362459243642196 0.05845347302734436
000260 2a 34 11 68 c7 97 b7 3f d3 cd 5f 2f 7f 9c c8 3f
       0.09215971270278148 0.19227590382761992
000270 f5 d5 2b 89 5b 41 c7 bf 7a 5c 1a 21 91 60 a7 3f
       -0.18168205449880728 0.04565862206543954
000280 54 a8 f6 cc 75 38 a2 bf 60 17 18 67 f8 b8 b3 3f
       -0.03558700682636187 0.07704117314287151
000290 2c 61 22 22 25 0c 91 3f 18 b5 41 e8 ec 1a c3 3f
       0.016647892197029154 0.1492591985765237
0002a0 48 d1 5b fb da f7 9b 3f 13 56 e8 b7 71 a1 c7 3f
       0.027312680808749407 0.18461438636647695
0002b0 97 1f 4d a8 93 08 c7 3f df a1 8e 0b ee aa be 3f
       0.17994924276194688 0.11979568273694195
0002c0 c0 b4 2e 05 3a 58 bf bf e5 1a 83 bf d5 fc b6 bf
       -0.1224399817135291 -0.08979545522297945
0002d0 d8 68 07 41 c9 cf b0 3f af 60 05 a3 81 05 c3 3f
       0.06567056501026813 0.1486055418015488
0002e0 e0 d1 8c 7c f4 3f c7 bf 98 e3 e7 dd 17 cb a3 3f
       -0.18163925248667478 0.038658853376495717
0002f0 18 7c bd d6 d4 79 82 bf 68 f9 88 8a e0 45 ac 3f
       -0.009021437457418499 0.05522062007047418
000300 18 ef e6 a0 6a aa b6 3f 9b a8 2c 0a dd 19 b5 bf
       0.08853784969590739 -0.08242589472198107
000310 7f 77 ad b0 38 21 ae 3f 80 bb 98 59 96 ae b1 3f
       0.05884720951756516 0.06907024085442792
000320 63 0d 97 4b c6 8d a6 3f 0c b0 5d 20 74 af c2 3f
       0.04405040428857878 0.145979419521041
000330 3c 52 14 ca e6 bc c0 bf c4 68 20 b4 0d d8 b9 3f
       -0.13076481692464081 0.10095296523687397
000340 69 03 a1 bc e0 ba b4 3f 6f 91 4d 37 af 02 9e 3f
       0.08097653012465646 0.029307115316798468
000350 55 94 b0 0c d6 82 c3 bf 9f 6e c1 41 fc 46 a6 3f
       -0.1524303018533454 0.04351032545738786
000360 4b 24 5d ab ba de 96 bf d9 9d f8 6c 5a b7 c1 bf
       -0.02233401938363881 -0.13840799637658455
000370 f1 a9 76 4b d3 1f ba bf de fb 43 d4 ef 2c c4 3f
       -0.10204811661120751 0.15762136330155746
000380 44 d2 98 32 1c 59 a9 bf a2 2f 89 0a 54 c5 a9 3f
       -0.0495079814685693 0.050333620344275035
000390 e0 21 8d 05 18 81 bd 3f 34 09 87 8b e1 b3 b1 3f
       0.11525106559304943 0.06915101677353591
0003a0 ea 74 cd 7f 7b d7 ba bf 52 e7 1d 4b 82 1b c3 3f
       -0.1048505007760984 0.14927700679600747
0003b0 8d ff 20 77 c2 b1 be bf 00 29 4c a6 4b 4a 9b 3f
       -0.11989989670200725 0.026650602364534315
0003c0 69 4a df 47 5b 8d c3 3f 8d b2 88 f4 90 7f c7 3f
       0.15275136002908887 0.18358051242957565
0003d0 ce 22 3a 56 cd b2 b4 bf 4d 6b f1 a6 48 b9 c3 bf
       -0.08085330348161365 -0.1540919127608852
0003e0 99 f8 85 ef 41 4f 75 bf d1 70 44 cb 2b a3 c1 bf
       -0.005202539025388608 -0.1377920858875599
0003f0 9f 01 7c bc 59 05 c7 bf 5c e6 8f 27 cf 74 bf bf
       -0.17985078528728324 -0.12287611690398975
000400 44 93 27 f9 b3 75 5f 3f 37 68 b7 03 9b e5 91 bf
       0.0019201524306648602 -0.017477438070138098
000410 c9 7b ee e4 96 6e bd bf 0a cf 3b 09 35 74 c6 bf
       -0.11496871079587757 -0.17542136145458925
000420 c7 ae c7 e4 4a b3 c7 bf e6 c3 d8 d1 58 2a 9e bf
       -0.18515907450579602 -0.029458415802029146
000430 61 57 8c 32 df 5a b7 bf a6 75 48 d4 9d e1 c5 3f
       -0.09123034462058179 0.17094776978858056
000440 4d 49 3f 9e 03 57 b6 3f 4a a5 5d 3f de 84 c9 3f
       0.0872652303071721 0.19936731428178184
000450 f8 2b 44 32 d3 ab a7 3f 56 6a de a4 31 d8 af bf
       0.04623279560663457 -0.06219630372580258
000460 ec a3 1d 42 0e 7c b6 3f 0e af 47 55 a7 d1 c6 3f
       0.08783043970255705 0.1782731214910815
000470 f8 cc ef db 39 8d 91 bf 33 b6 65 e6 0a d9 c5 3f
       -0.01714029698264327 0.17068611383312912
000480 6f ce 0a 54 88 ad b3 3f d1 ca af 91 c4 26 c8 3f
       0.07686664630710437 0.18868310083015286
000490 0f ad 77 45 45 6d bb 3f 1f 30 e8 4e f2 67 a6 3f
       0.10713608690246111 0.04376179898471854
0004a0 0a 64 43 13 e4 d6 c2 bf 7d 1b c1 fe 70 8a b1 3f
       -0.14718295040691515 0.06851869792545347
0004b0 5e 03 b8 57 d7 71 c8 3f a3 49 60 7e 31 33 95 bf
       0.1909741571726284 -0.020703099573503924
0004c0 cf 7f 3a 74 c7 06 ab bf 0b d3 77 36 72 b6 c8 3f
       -0.05278609556012236 0.1930678144414276
0004d0 3b f1 41 e1 db 10 c8 3f d8 73 17 89 20 fd 86 3f
       0.18801449297814962 0.011224989112571679
0004e0 5d 69 21 b2 ab 0c b6 3f f9 e6 5f 2b 8d 68 b3 3f
       0.08613083933724881 0.07581407841635358
0004f0 e0 95 b9 83 5f cc 76 bf be 1e 25 9c 5e 83 bc bf
       -0.005565999129975435 -0.11137954055913732
000500 05 7f e9 b4 b9 d6 b5 bf b0 d9 83 7f fe 0f c5 3f
       -0.08530769984053783 0.16455060221023876
000510 bc ce d7 02 0a 6c b9 3f 10 52 8a ff ca 43 b6 3f
       0.09930479592713487 0.08697193850304807
000520 45 aa ad ed 5c 3d c4 bf 50 b3 91 e8 b0 78 98 bf
       -0.15812265019788377 -0.023897899813550894
000530 79 32 6f 14 df f1 b8 bf 69 76 ba 69 5a 6d b5 bf
       -0.09744066475759351 -0.08369984704264656
000540 cf 37 8c dd d0 7a c0 bf 51 c0 6a 64 15 9c b8 bf
       -0.12874804322967612 -0.09613164617144433
000550 2b b7 d6 c8 9c 61 c4 3f 49 6c 60 f6 0c 44 c4 bf
       0.1592288952501176 -0.15832674055204368
000560 84 ff 21 72 43 a9 ae bf 3a 5b 3d 1f f9 1b bf bf
       -0.05988512771818846 -0.1215205861347898
000570 cc 5a 78 c7 76 66 91 bf c2 cb 3a 9c 22 16 a8 3f
       -0.01699243156880463 0.04704387814617618
000580 32 6b b4 84 6c 6c 6c bf 24 33 8e ab cb 52 b3 bf
       -0.0034696692943162683 -0.0754821103893844
000590 5b 95 d1 3d dc 51 b4 bf 1a fb 90 8e 9b 20 9b bf
       -0.07937408932919736 -0.02649157579093773
0005a0 63 0c 68 01 66 64 c2 bf f5 71 0c 23 56 93 b2 bf
       -0.14368891781495838 -0.0725606761520295
0005b0 1e 05 44 30 0b f1 8d 3f a5 71 6f cf df 47 64 bf
       0.014619910631611218 -0.0024756785673913533
0005c0 12 18 3a 5a ea b3 c4 3f bd b4 69 39 bb 63 b5 bf
       0.16174058347331816 -0.08355302955324624
0005d0 60 f8 b0 12 dd 1a be bf ce 94 29 46 a1 5c c1 3f
       -0.11759740549402542 0.13563934255504367
0005e0 c5 37 41 79 e8 0d c9 bf b0 67 18 10 be ca c2 bf
       -0.19573694153444712 -0.14681220804123774
0005f0 04 79 ff e9 36 bb ac 3f c8 2c f1 b1 57 31 9f 3f
       0.05611583334369821 0.0304616644246323
000600 0e fd 28 8c 62 89 c2 3f c1 50 0e 09 f9 67 c8 3f
       0.14481765598063884 0.19067299787696437
000610 ce ad ab 9b 7d 54 b4 3f 5b 05 a6 fe 7c fd 96 3f
       0.07941422510673776 0.02245135597468582
000620 41 1c f1 e6 f1 48 a5 bf 56 a5 24 c3 5f ff c2 bf
       -0.041572150651113755 -0.14841839817499175
000630 9b 8a d3 21 b5 73 b0 bf 36 ca f1 51 c2 39 c7 bf
       -0.0642655570586989 -0.18145016671367536
000640 78 5b 05 a7 cd 4f b9 3f d9 85 e5 8a 6d 60 c2 3f
       0.09887395217570638 0.1435677459913183
000650 3c ec b5 9f cd 7b b0 bf 99 34 0b ea eb 55 c1 bf
       -0.06438908719239661 -0.13543461730879328
000660 93 5f c7 09 bc 65 92 3f 4c d0 a8 9b 88 96 c2 bf
       0.017966211411333765 -0.1452189216666987
000670 9c a0 61 0c de a8 af bf 2b a0 d0 f4 9a db bb 3f
       -0.06183523083819972 0.10881966092040389
000680 5f ec 7d 28 43 c6 b0 3f b8 e2 9c 39 77 98 c8 bf
       0.0655252431733273 -0.1921528846085232
000690 02 2a 47 c6 6a fb b1 bf db ae 76 6e b0 d7 52 bf
       -0.0702425703122245 -0.0011500571216442243
0006a0 5d cf 9b ab 2e 5b c8 bf 2f d9 3b c1 31 b1 c0 bf
       -0.19028266314819123 -0.130407542564805
0006b0 62 0e 5a 1d 76 df c8 3f 2e 16 2e 10 82 38 91 3f
       0.19431950028603057 0.016817123639631663
0006c0 bc f4 10 54 fc 66 95 bf e5 90 04 27 74 a6 c6 3f
       -0.020900671607013463 0.1769547644154336
0006d0 f3 d2 35 94 5a f6 70 3f 43 6c 33 40 01 70 b0 bf
       0.004141191314705794 -0.06420905892757482
0006e0 3e af b4 75 a1 6b c8 bf 94 08 02 a6 61 80 a6 bf
       -0.19078462836602655 -0.04394822265113976
0006f0 9d c8 66 65 4b 13 92 3f 9b 85 b2 e0 1c ed c6 bf
       0.01765172773748046 -0.17911110850859022
000700 f8 cb fc 53 0d 58 af 3f ae fd 04 d4 cb f6 85 bf
       0.061218658926371405 -0.010724632652112511
000710 19 08 2f fb 89 c4 b3 3f d2 e1 40 57 0c 5c c2 3f
       0.0772176969758508 0.14343408832952648
000720 d4 78 64 8a d0 9c b4 3f ce 0e 84 a0 f0 6d c4 bf
       0.08051780108187084 -0.15960510099113495
000730 65 08 45 96 a1 6b 95 3f 91 b0 db b5 3d ee c3 3f
       0.02091839294121946 0.15570804004471886
000740 af 1a 78 e3 e7 8d af 3f 78 70 c5 f4 bb a1 a4 3f
       0.061629530446272944 0.04029643404894129
000750 97 cb 61 69 2c ea bb bf da b7 cc d9 ab 36 ab 3f
       -0.10904195378115698 0.05315148385703568
000760 51 63 77 2d d7 e0 ad bf fa 34 c0 3a 00 55 b0 3f
       -0.05835602216729419 0.06379701074930103
000770 b0 d1 53 cf af 1b 80 3f ad 7d 8b 56 50 82 c7 bf
       0.007865308298712431 -0.18366436220001728
000780 1a 27 61 81 57 b1 c0 3f db fd b1 a3 09 49 9d bf
       0.1304120427833418 -0.028598929039160708
000790 79 eb 49 54 c4 06 a5 bf 87 fe 44 e1 45 85 a6 3f
       -0.04106725243487736 0.04398554205772336
0007a0 5c 46 56 5e 27 37 90 3f 7b cb 55 a6 57 48 b5 bf
       0.01583539498603269 -0.08313510714451226
0007b0 3e 2e 53 fc ba 12 c3 bf 5d 34 bb 2f 1d 5e a5 bf
       -0.14900910683205554 -0.04173365790993764
0007c0 86 ba 89 a8 e3 65 a8 bf b7 64 ab 46 20 46 c5 bf
       -0.04765235359524404 -0.16620257807406855
0007d0 ba 45 52 e7 d1 00 c8 3f 65 e5 d5 3e c0 ac aa 3f
       0.18752502245892605 0.05209923522029206
0007e0 29 28 3c 77 66 10 b5 bf db fe b9 a5 00 b5 c1 3f
       -0.08228149806032604 0.1383362588130613
0007f0 d7 5b 4a 60 c8 ab c4 bf 59 b8 2b f8 39 a9 a1 bf
       -0.16149239255602651 -0.034494220299038765
