checkpoints/full/best_params.npy (npy, 43920 bytes, 1 tensors)

array f8 [5474]
-0.07342422307843399 -0.16022872586963968 -0.051040296634488704 -0.010192922238537225 0.08711319775601606 -0.1575010060753016 0.08392151064788658 -0.07811756227391586
0.14181399602249306 0.1988766456889716 0.12144091616026777 -0.0004924599833375286 -0.018883102481947044 0.03131140992009878 0.015802807333326733 0.036612273239657926
0.18143501018152697 -0.17385177097792126 0.15604707790283617 -0.07310709969984051 0.14017538122835724 -0.14200880623839562 0.09925978547562521 -0.07551997088428904
0.13818264444812906 0.1696056399486929 0.0678875506646827 0.1953510876464699 -0.0024102742918701153 0.1902915287349706 -0.15857618412923388 0.1566249425367111
0.010591637701172635 -0.13655465931719096 -0.17585291051497282 -0.021825979667261786 0.0064178896322409475 -0.1906201134542293 -0.12046305939679218 0.0852934832043374
0.14049789772034174 0.03267625067319468 -0.0927112821290453 0.04816041962680724 -0.1542635497169632 0.015474441703996158 0.18918318820909305 0.17408773216124773
0.03891657554110094 0.09563182866039972 -0.009905970974178616 -0.06227812162223614 -0.02950343308493495 0.08726700689293548 -0.1487296579627986 0.15424651689094399
-0.005093772620237901 0.1562765020366642 -0.06329720058593721 -0.09262889751161726 -0.012772163979462726 -0.10707943245159636 0.12721410731750907 -0.035076064009221274
-0.16208875874930292 -0.14621728670393858 0.06401264359173017 0.08257885797728554 -0.09256980723407385 -0.037565218617060324 -0.18208632852619455 -0.14200623704296306
0.06397023989135231 0.06746437127795857 0.06409606202412015 0.05845427074251542 0.09209722114683233 0.19227788811322435 -0.18168205449880728 0.0456859347723078
-0.03558689613302013 0.07704208971048089 0.016647915455879018 0.14746002335400807 0.031151722778272467 0.1846137379329775 0.18011659827552268 0.12054211476850173
-0.1224399817135291 -0.08979600087878639 0.0665114650328745 0.1485682602915764 -0.1816975353718583 0.038593211971003606 -0.009021437457418499 0.055220852732977596
0.08853517510945887 -0.0824257768733331 0.058847094209391396 0.06907024085442792 0.04405134145620647 0.1463644322029328 -0.131372130032742 0.10093644660096421
0.08069281047744535 0.02930185169143606 -0.1519194547983061 0.04355952379212745 -0.022223990377969648 -0.13840800526126013 -0.10204515659102971 0.15761792565752875
-0.05572234420883665 0.058364928371153924 0.11528064344843232 0.06916315763959369 -0.1047960738119352 0.11317417388437957 -0.12095520604201077 0.02393014006965372
0.15102919533178152 0.18497683569023943 -0.08085306083477002 -0.1522194728211286 -0.005204416574106279 -0.13909705083572002 -0.17985078537365423 -0.12221375047227385
0.00513908623653554 -0.017477438070138098 -0.16288962597588885 -0.17542170949285088 -0.18515899892445756 -0.02946309423388634 -0.09123044441342373 0.1949138294359561
0.08749871830290902 0.1993673427235895 0.046770461816795214 -0.06219325705228527 0.0878304414266092 -0.05138113832604224 -0.01761913454377185 0.1706910922832765
0.07686952811140631 0.18878583713929883 0.10713081920215714 0.04376181117972542 -0.1472476134320922 0.06851485280360078 0.16220937093598836 -0.02070742788025125
-0.052691047935615805 0.19248303534864347 0.18801449297814962 0.1800123894796234 0.0862555292595231 0.07581386354643115 -0.005566000600005361 -0.1113797488015576
-0.0859870762920766 0.16445254581796234 0.09943540066335882 0.08695375441340407 -0.15826886000526927 -0.023815552384945784 -0.09742155644172061 -0.08367302790815992
-0.17791056285666157 -0.09620440678185269 0.15923043443898202 -0.15832712171487984 -0.05980425154995806 -0.12152057907733159 -0.01679464861501079 0.028141325149632565
-0.0034333836770319526 -0.0754821103893844 -0.07937202392190776 -0.026492659085794495 -0.145386107666656 -0.0726634295799664 0.011443968965298337 -0.002482889308530133
0.16149415757307944 -0.08353011255249346 -0.11754835948038331 0.13461320276671096 -0.19573709871527942 -0.1468251928318516 0.05630891778967714 0.030353392225568158
-0.06835588736956276 0.1906730057521446 0.07941461183419823 0.022451349681206517 -0.04119483224211806 -0.1516255109979265 -0.057957136891191106 -0.18145016671367536
0.09661556154734828 0.14544095293259113 -0.06883088821265361 -0.1354344642031556 0.01843888903350418 -0.14521892315208965 -0.06183265902824857 0.10881958824416417
0.0655252431733273 -0.19254870664459103 -0.07024257042866959 -0.0011749512403122736 -0.17324630298348018 -0.13106728930480815 0.19431839000384662 0.016816332201087903
-0.020900260154190553 0.1769547642718339 0.004037777157739659 -0.06424806873607929 -0.19081396335371045 -0.04205728905289529 0.017659248108788217 -0.17911110880190478
0.06088140506247274 -0.010724499388757323 0.072520679311987 0.14303213790315458 0.08051148316732873 -0.1596056262028608 0.020911401455647526 0.1557080397925492
0.057537581200598334 0.04029643404894129 -0.10900879940155203 0.05424959580138616 -0.05835695083100708 0.07122761414292986 0.007865294513015517 -0.18331306208078754
0.13031808049944638 -0.029734369933676938 -0.040757974906009735 0.04394594963405306 0.015843489417663975 -0.08324527764745887 -0.14900294528246788 -0.04173165258868752
-0.04765235359524404 -0.1662026646320349 0.19035078737350591 0.052099235108570924 -0.08225106494177088 0.10843726818973223 -0.16149224021633196 -0.034504509158647195
00000000: 3828 db0c eecb b2bf 75b3 bef8 5f82 c4bf
00000010: 5d83 a529 f421 aabf 584e 52dd 06e0 84bf
00000020: 647d 69ef 0c4d b63f 341b 1733 fe28 c4bf
00000030: f2e0 a94f e17b b53f b0af 3537 83ff b3bf
00000040: 260e 8405 f626 c23f 550e 9638 ca74 c93f
00000050: 19fc 4d7b c016 bf3f 326e f2c2 0d23 40bf
00000060: e68b 6d8e 1756 93bf 376b 3293 0c08 a03f
00000070: 81fc b972 9c2e 903f c7a1 6408 d8be a23f
00000080: 781f 8a2d 4339 c73f 58d6 595b c640 c6bf
00000090: 5e51 1dc4 59f9 c33f 37f4 509a 25b7 b2bf
000000a0: 9741 0a53 44f1 c13f 3cda 4435 582d c2bf
000000b0: 5100 6ddc 1669 b93f ad94 24dd 4655 b3bf
000000c0: fec6 6309 f8af c13f 1ffd 653a a3b5 c53f
000000d0: 0b0d e919 1461 b13f b8fd 56b2 4301 c93f
000000e0: e04d 4128 b6be 63bf 7daf 4f0a 795b c83f
000000f0: 6738 6172 394c c4bf 4c6e f73e 490c c43f
00000100: 300a 4d8c 11b1 853f f21e f181 9f7a c1bf
00000110: 86bb c821 5982 c6bf 0d07 7fb3 8c59 96bf
00000120: 4de9 4621 a549 7a3f e673 9f68 3d66 c8bf
00000130: 733e 7cc4 aad6 bebf 99af ec30 cbd5 b53f
00000140: a9cc eec9 d5fb c13f 0f9a fe07 f1ba a03f
00000150: 15e8 b634 edbb b7bf fa7d 8486 7ba8 a83f
00000160: ace6 7f72 e8be c3bf c815 5768 10b1 8f3f
00000170: 0fd1 279b 2737 c83f 1039 22be 8148 c63f
00000180: be53 7196 dfec a33f 7597 8dd8 537b b83f
00000190: e22a f4ea 9449 84bf a464 3fff eae2 afbf
000001a0: dac9 e0e0 2536 9ebf acfd 9f6c 2157 b63f
000001b0: 499f 72cc 9209 c3bf 22c5 c890 59be c33f
000001c0: 722d 132d 35dd 74bf 6cbc b050 de00 c43f
000001d0: 66e8 71ce 3e34 b0bf 3618 7a05 87b6 b7bf
000001e0: 9a3f bad4 4a28 8abf 592f 74c4 8e69 bbbf
000001f0: 615f 4247 8d48 c03f 1382 9567 7df5 a1bf
00000200: 9751 f00e 53bf c4bf 366b 4080 3fb7 c2bf
00000210: c6c9 c1f2 2163 b03f 047d 5a56 e323 b53f
00000220: dad8 aaa6 a7b2 b7bf 83cf da92 bf3b a3bf
00000230: bccb 08d5 9a4e c7bf f6b9 f6a7 422d c2bf
00000240: 7829 4088 5a60 b03f 70b6 4854 5845 b13f
00000250: fb2b 327a 9968 b03f d11f 4dda b7ed ad3f
00000260: c4cc e0f8 ae93 b73f f959 98d4 8f9c c83f
00000270: f5d5 2b89 5b41 c7bf c6ef 7797 2564 a73f
00000280: c06c 1d16 7238 a2bf e1d5 b8c7 07b9 b33f
00000290: 11e2 b7b1 260c 913f 1bed e254 f8df c23f
000002a0: 38dc 2fba 3ce6 9f3f ff3f 6847 6ca1 c73f
000002b0: aab2 8789 0f0e c73f 3fad b818 d9db be3f
000002c0: c0b4 2e05 3a58 bfbf 7202 16e7 defc b6bf
000002d0: f60f 2037 e506 b13f 1385 96e5 4804 c33f
000002e0: b4cc 1766 dd41 c7bf 4daf 864e 7dc2 a33f
000002f0: 187c bdd6 d479 82bf de3a 1759 e845 ac3f
00000300: c908 a4c1 3daa b63f 2ab3 0410 db19 b5bf
00000310: 721c 30d2 3421 ae3f 80bb 9859 96ae b13f
00000320: be75 ccbd e58d a63f 73fa cdd8 11bc c23f
00000330: aa59 0c4d cdd0 c0bf c626 2091 f8d6 b93f
00000340: 4fe0 05b6 48a8 b43f 3f68 e8fa 4d01 9e3f
00000350: 6210 fec0 1872 c3bf aea8 3b14 6f4d a63f
00000360: 66a3 70bf e2c1 96bf c604 0d80 5ab7 c1bf
00000370: 550f 46a2 a11f babf 6831 fbfd d22c c43f
00000380: e81a 119c a387 acbf 50cb 2c05 02e2 ad3f
00000390: ed0c 7941 0883 bd3f 1070 263c adb4 b13f
000003a0: a67e c55d ead3 babf 79d1 958f fbf8 bc3f
000003b0: 943b 3b9e ebf6 bebf 1192 f383 2481 983f
000003c0: 2979 58b7 ec54 c33f 7e50 e729 52ad c73f
000003d0: 251c 1144 c9b2 b4bf c161 ca7c ed7b c3bf
000003e0: df51 b0ef 3951 75bf 9d9c 27a2 eecd c1bf
000003f0: 427d abbc 5905 c7bf 3561 667d 6649 bfbf
00000400: 4d6e 13f5 b80c 753f 3768 b703 9be5 91bf
00000410: 6449 3638 91d9 c4bf d5dd a3f4 3774 c6bf
00000420: 0967 7842 4ab3 c7bf 15ac b1c8 922b 9ebf
00000430: 3ebb 27df e05a b7bf 4297 7bb5 eff2 c83f
00000440: 918b 8de5 5066 b63f ddb1 717c de84 c93f
00000450: 1e0a d847 4cf2 a73f ad7f 246a cbd7 afbf
00000460: 7641 8549 0e7c b63f 78b3 7be9 a04e aabf
00000470: 62e8 981a c00a 92bf d89f 89a9 34d9 c53f
00000480: 3525 4cad b8ad b33f eb0a 3b62 222a c83f
00000490: aef0 dde4 ec6c bb3f ad4a a9b7 f267 a63f
000004a0: ea6c 0d82 02d9 c2bf 8eeb 147c 308a b13f
000004b0: be2c a3d3 46c3 c43f 3dad 1ef6 5334 95bf
000004c0: 09d3 592f 52fa aabf e6b9 edba 48a3 c83f
000004d0: 3bf1 41e1 db10 c83f 444b d85e a50a c73f
000004e0: 92d1 44a5 d714 b63f 8fec 8390 8968 b33f
000004f0: 1aa0 bee8 5fcc 76bf 2415 8a1a 6283 bcbf
00000500: a999 8dc0 3f03 b6bf 851b 04f1 c70c c53f
00000510: aced e931 9974 b93f 0351 78eb 9942 b63f
00000520: 9f52 d96c 2742 c4bf 17a0 84aa 1a63 98bf
00000530: 2bb5 d77e 9ef0 b8bf 623f 6c76 986b b5bf
00000540: 4289 8af8 c5c5 c6bf 76f0 db1c daa0 b8bf
00000550: 0dbe 38b2 a961 c43f 80e8 ea28 1044 c4bf
00000560: 513d 23b1 a99e aebf 5799 ed00 f91b bfbf
00000570: 4177 32ca 9d32 91bf 4c2f bc5c 14d1 9c3f
00000580: 176a 70d3 5320 6cbf 2433 8eab cb52 b3bf
00000590: 9e40 f696 b951 b4bf 6b25 6e41 e420 9bbf
000005a0: 764a dc10 039c c2bf 6f41 a90d 129a b2bf
000005b0: 8e06 8a83 ef6f 873f feb4 260c ff56 64bf
000005c0: c6be a22e d7ab c43f 92e7 a4bd 3a62 b5bf
000005d0: b6ac aa37 a617 bebf 6415 bf63 013b c13f
000005e0: 534b ccca e90d c9bf 8189 b8fc 2acb c2bf
000005f0: 3c77 c2c0 85d4 ac3f d1d4 b9ab f514 9f3f
00000600: e7c7 bd7c c57f b1bf d7bd f719 f967 c83f
00000610: bc04 a718 8454 b43f 9801 8792 7cfd 963f
00000620: 20fb 7c32 7d17 a5bf 57d9 7cf9 7668 c3bf
00000630: a3f0 08cf 8eac adbf 36ca f151 c239 c7bf
00000640: cf6a 2125 ccbb b83f 5a1a 2c24 cf9d c23f
00000650: 71f6 d3ad e69e b1bf b37d 40a1 ea55 c1bf
00000660: d66f 7ee5 a4e1 923f 7d6a d99e 8896 c2bf
00000670: 66bc b3c0 87a8 afbf 4941 acbc 99db bb3f
00000680: 5fec 7d28 43c6 b03f 997a f69e 6fa5 c8bf
00000690: 6332 c7c6 6afb b1bf 6ec3 b249 1a40 53bf
000006a0: 2bc5 bb52 ef2c c6bf d8db 911c d0c6 c0bf
000006b0: 73f8 09cd 6cdf c83f 7d8f 5ef3 4c38 913f
000006c0: c04d 5cb7 e066 95bf 099f b526 74a6 c63f
000006d0: 6ed9 748d ea89 703f 8b78 0dba 8f72 b0bf
000006e0: cfb6 1c8a 976c c8bf 0fca 1472 8888 a5bf
000006f0: 7093 6514 4415 923f f6c5 53e1 1ced c6bf
00000700: 0f0f 5bf7 d82b af3f 4c1f 20f1 b9f6 85bf
00000710: 7ebe ed19 b790 b23f e316 4989 e04e c23f
00000720: 3af8 278b 669c b43f f541 6608 f56d c4bf
00000730: 434e 7665 cc69 953f d80e 51b5 3dee c33f
00000740: ca53 18db 9075 ad3f 7870 c5f4 bba1 a43f
00000750: 6ee8 672c 00e8 bbbf 588b 935f 9ac6 ab3f
00000760: 3b7d a056 f6e0 adbf c6e4 5011 f93b b23f
00000770: f28b a7f5 ad1b 803f 5b86 486b cd76 c7bf
00000780: 884b e94a 43ae c03f fcae bac9 af72 9ebf
00000790: 2f85 8bb2 3ade a4bf 7e99 f060 1580 a63f
000007a0: f811 9d93 4639 903f 94d2 0a01 904f b5bf
000007b0: e678 7f4c 8712 c3bf 0424 27e6 d95d a5bf
000007c0: 86ba 89a8 e365 a8bf 7f23 8d00 2146 c5bf
000007d0: 4ebe 4423 6a5d c83f fc37 e03d c0ac aa3f
000007e0: 9d6f fce1 670e b5bf 0ae0 8a78 8bc2 bb3f
000007f0: dab9 2419 c7ab c4bf ac45 cd34 93aa a1bf
