checkpoints/maneuvering_hard/best_params.npy (npy, 43920 bytes, 1 tensors)

array f8 [5474]
0	0xbfb2cad77d67b3a4	-0.07340761958739833
1	0xbfc443a825eedaf6	-0.15831472255896245
2	0xbfaaa591aa6ce381	-0.05204444127452402
3	0xbf884724574c84be	-0.011854442514563576
4	0x3fb64d0e52c9c07d	0.08711328049844443
5	0xbfc3df5358c35d20	-0.15525285562646562
6	0x3fb59c937cfc9b98	0.08442041207727724
7	0xbfb403243b1f8b03	-0.0781729359000956
8	0x3fc2064c46aaf9e1	0.14081719828204967
9	0x3fc974bb58292461	0.19887487225267633
10	0x3fbf14d28344752e	0.1214114733197291
11	0xbf3ff8384513b23e	-0.0004878175141829511
12	0xbf933891f2a874ff	-0.01877048533980474
13	0x3fa0086085fb7de2	0.03131391177680222
14	0x3f902cf9908d5caa	0.01579656548286993
15	0x3fa2bed81054018c	0.03661227416341992
16	0x3fc73941515ce639	0.18143478844449293
17	0xbfc640c1931fb49a	-0.17385120090276446
18	0x3fc3efd176b161ea	0.15575617118407986
19	0xbfb2a9b06a5e7ed6	-0.07290175053503431
20	0x3fc1f13cbb563ab1	0.1401744761210089
21	0xbfc22d583544da3c	-0.14200880623839562
22	0xbf82902d04730797	-0.00906405610874454
23	0xbfb35546dd249b8e	-0.07551997088431348
24	0x3fc1aff255f75bdf	0.13818196485109888
25	0x3fc5b5a339f8d5e0	0.1696056397501442
26	0x3fb16168765476d6	0.06789257897295484
27	0x3fc8fb357613bbed	0.19516628518564919
28	0xbf63beb628414de0	-0.0024102742918701153
29	0x3fc85b794a4b5fcb	0.19029155852945076
30	0xbfc44c39726f4bc2	-0.15857618415483726
31	0x3fc40e05ba71dc7b	0.1566779289603096
32	0x3f85b1118c4d0a30	0.010591637701172635
33	0xbfc17a9f81f993c5	-0.13655465933257296
34	0xbfc73579e3beb639	-0.18131946201667562
35	0xbf96585cba0ea6af	-0.02182145009616104
36	0x3f7b55aa5e58c139	0.006673493864170426
37	0xbfc81ca015948079	-0.18837357572283844
38	0xbfbed6ca5c922f32	-0.12046494255099274
39	0x3fb5d5ccfeca295f	0.08529359074069508
40	0x3fc1fbd5c467e492	0.14049789514664163
41	0x3fa02b8b864562b3	0.03158222211886166
42	0xbfb7709faafa9b81	-0.09156225132265484
43	0x3fa8a87be1f2b421	0.04816043027071993
44	0xbfc3be7606488723	-0.15424990946581216
45	0x3f8fb110685715c8	0.015474441703996158
46	0x3fc871eb9d7cacc9	0.19097657384677394
47	0xbfb51fe57a72cffe	-0.08251795043435092
48	0x3fa41b35417946ed	0.039270080797576636
49	0x3fb87b53385d6a66	0.09563179136368091
50	0xbf825fa4617e125e	-0.008971485352739336
51	0xbfafe2eaff3f64a4	-0.06227812162223614
52	0xbf9e3738ff1428da	-0.02950753266217352
53	0x3fb5fb957d710536	0.0858701163533809
54	0xbfc309879d1e61c8	-0.14872832462130092
55	0x3fc3be5990c8c522	0.15424651689094399
56	0xbf74e2f733a2b84f	-0.005099263793608768
57	0x3fc4009524f8ce4f	0.1562677794005247
58	0xbfb036b20d655d83	-0.06333458735513457
59	0xbfb7b68705c27d75	-0.09262889757746058
60	0xbf8a277e430e6360	-0.012770639821427288
61	0xbfbb709c8eae0549	-0.10718706591980721
62	0x3fc0488ca75e52ee	0.12721403286254634
63	0xbfa1f57d67982b89	-0.03507606401043179
64	0xbfc4ae865f360a83	-0.16157607697467222
65	0xbfc2b683a9ef1ed6	-0.14619489476739628
66	0x3fb0621f203057d7	0.06399721656666145
67	0x3fb523e4a2586c7a	0.08257893527518148
68	0xbfb7b94c80c2ad06	-0.09267118590894449
69	0xbfa33bd0b4ad7bca	-0.037565729194049505
70	0xbfc74ec1c5f3904c	-0.18209097066494662
71	0xbfc2559b8bc5728c	-0.14323753666657912
72	0x3fb05f0963267e0e	0.06395014448798284
73	0x3fb14553051ac661	0.06746405481933372
74	0x3fb06c473403e232	0.06415219325925461
75	0x3fadec440aeedfa7	0.05844318994007774
76	0x3fb7984abf0f6d9c	0.09216754116589815
77	0x3fc89c8aeba0e955	0.19227730279255675
78	0xbfc7415b892bd5f5	-0.18168205449880728
79	0x3fa5cc872c0dffc0	0.04257604992653752
80	0xbfa23871dffc6807	-0.0355868898315777
81	0x3fb3b825cfe70108	0.07702862096539687
82	0x3f910c2600bfde14	0.016647905154938483
83	0x3fc16239122c30bd	0.1358100260480394
84	0x3f9bf7dae6d7821d	0.027312679614512548
85	0x3fc7a39f5f2ebec9	0.184680863834265
86	0x3fc70ea3f319f6db	0.18013429041086834
87	0x3fc1ff1737f8baff	0.14059725029934353
88	0xbfbf583a052eb4c0	-0.1224399817135291
89	0xbfb6fcd9dc9d6813	-0.08979570041756828
90	0x3fb100b0f0a7e9a6	0.06641679644955065
91	0x3fc30413f2468ab0	0.14856194810734769
92	0xbfc73ee8ef7e7ec8	-0.18160735792206695
93	0x3fa3bf70c36ff728	0.03856994996747992
94	0xbf8279d4d6bd7c18	-0.009021437457418499
95	0x3fac45e114db6cbd	0.055220636173282746
96	0x3fb6aa478b2fe2a4	0.08853575847741496
97	0xbfb519dd0a326fc9	-0.08242589472723617
98	0x3fae2134caa9a2bb	0.05884709333333179
99	0x3fb1ae965998bb80	0.06907024085442792
100	0x3fa68dcd7fd3c88c	0.04405061898604953
101	0x3fc2abc4bcc75284	0.14586695878701417
102	0xbfc0c668639ef21f	-0.13105492462445142
103	0x3fb9d816df74f8ab	0.10095351176730342
104	0x3fb582ab0a4a428b	0.08402508736822704
105	0x3f9e02bea02fa5db	0.0293073449392177
106	0xbfc372198053b1a0	-0.15191954389537177
107	0x3fa6405692f9c40e	0.04345961135994268
108	0xbf96c20bc8e345b0	-0.022224601875512284
109	0xbfc1b75a63558340	-0.1384079918889487
110	0xbfba1fced7b55f32	-0.10204785124130636
111	0x3fc42c8ece73576b	0.15760979729264632
112	0xbfa8da0d0431d509	-0.048538595926325874
113	0x3fae26b29d2ab5da	0.05888899010220046
114	0x3fbd8253e32ddc9f	0.11526989265790853
115	0x3fb1b4ad391cc615	0.06916315693231241
116	0xbfbafa2a264a11fb	-0.10537970957563651
117	0x3fc302694633f369	0.14851108482244094
118	0xbfc2343ea3782ec2	-0.14221938115985294
119	0x3f9bd0cc3d5d4406	0.02716368794000703
120	0x3fc38d5aec2295eb	0.15275131731065925
121	0x3fc7a614ae5ffd3d	0.18475588335420837
122	0xbfb4b2cc47f57aae	-0.08085324055489693
123	0xbfc37d17aee6422b	-0.15225502052318637
124	0xbf757e333e62bc6d	-0.005247306986503647
125	0xbfc18af903fe555b	-0.1370536107539618
126	0xbfc70557d3ae40da	-0.1798505576703125
127	0xbfbf6ff2e92d3488	-0.122801954200627
128	0x3f65cd7eb9efb650	0.0026614642260856317
129	0xbf91e59b03b76837	-0.017477438070138098
130	0x3fc86a1b4b82e591	0.1907381170947642
131	0xbfc6743504d84ab6	-0.1754213594109239
132	0xbfc7b34b3b700663	-0.18515911485887945
133	0xbf9e2b92f2fec568	-0.029463096696138363
134	0xbfb75adfdbbfd9a0	-0.09123038401580752
135	0x3fc593104aaf182b	0.16855052611043794
136	0x3fb664b6e2b07f15	0.08747427973184714
137	0x3fc984ddb48e79d4	0.19936724964368457
138	0x3fa7f372f73eaca9	0.04677924411893148
139	0xbfafd7e0e67787bc	-0.06219389737431366
140	0x3fb67c0e430ace54	0.08783043991825795
141	0x3fc6b7165674e986	0.17746237966077788
142	0xbf921eeea720cfe2	-0.017696122122472853
143	0x3fc5d90d854e4098	0.1706864262491805
144	0x3fb3adb91544fb13	0.0768695523192771
145	0x3fc826b40fd8941b	0.18868113301974251
146	0x3fbb6d30da2be0f2	0.10713486982774947
147	0x3fa667f2c689e903	0.04376181291168459
148	0xbfc2d6a7258efa16	-0.14717568715964607
149	0x3fb18a749df36c91	0.06851891380522292
150	0x3fc6c47e3825c5fe	0.17787149182872491
151	0xbf9533324532c332	-0.020703111146477222
152	0xbfab06c8612a62b7	-0.052786123143226
153	0x3fc8ac6f6eb4c967	0.19276230722023088
154	0x3fc810dbe141f13b	0.18801449297814962
155	0x3fc56ad78fa456e9	0.1673230601669993
156	0x3fb61412f1fc0894	0.08624380500626422
157	0x3fb3688c0650ca03	0.07581401018322968
158	0xbf76cc5f2ab33bba	-0.005565997834493902
159	0xbfbc835fe7d55e5d	-0.11137961778637746
160	0xbfb60fdbfb0bf7cd	-0.08617949370451967
161	0x3fc512a8413a6eaf	0.16463187394116605
162	0x3fb96c0d27b2806e	0.09930498332187351
163	0x3fb6297860f9e7b3	0.08657028548796468
164	0xbfc40a468a98ecd4	-0.15656358497094536
165	0xbf987834024f7578	-0.023896038666739255
166	0xbfb8f1e718186999	-0.0974411424471441
167	0xbfb56d76c859277d	-0.08370153800311005
168	0xbfc054ef7d9a9020	-0.127592026071512
169	0xbfb89da3caa75019	-0.09615539262387109
170	0x3fc4619dd5b18e03	0.15922902044540885
171	0xbfc44412637befbe	-0.15832738740561852
172	0xbfaea91f3a3a535d	-0.059884048326387364
173	0xbfbf1bf900e3783a	-0.121520579068119
174	0xbf91329c7620f344	-0.0167946288204235
175	0x3fa5e675ee3c3c6a	0.04277390034814561
176	0xbf6c6bbbfa6ae442	-0.003469340462598087
177	0xbfb352cbab8e3324	-0.0754821103893844
178	0xbfb44ddebc5673f9	-0.0793132028397422
179	0xbf9ae0b7e6ce7f44	-0.026247857534712496
180	0xbfc1a11006b4b8a5	-0.1377277405494556
181	0xbfb299c65109bb55	-0.07265891531436115
182	0x3f8b7b3a6a4d8232	0.013418632859328292
183	0xbf6447dfcf6f71a5	-0.0024756785673913533
184	0x3fc4b3d30425b38d	0.16173780157569376
185	0xbfb56230731adaf7	-0.08352949915102302
186	0xbfbe1a43bd44e465	-0.11758826609447366
187	0x3fc15bf15485494a	0.1356183684061512
188	0xbfc90de9ddd00079	-0.19573710756958798
189	0xbfc2cabed26b1b37	-0.14681229852996022
190	0x3facd460ef5997ae	0.05630782052757809
191	0x3f9f2a5199e5d3da	0.030434870737241805
192	0xbfb1a336d3ab95bf	-0.06889670055132678
193	0x3fc867f91e9e22b6	0.19067300791745873
194	0x3fb45483a46e912b	0.07941458477450129
195	0x3f96fd7cfea44ad2	0.02245135597429277
196	0xbfa546c2c639dc59	-0.04155548734427645
197	0xbfc2f7dbe38811dc	-0.1481890545839083
198	0xbfb073b51762371d	-0.06426555462732293
199	0xbfc739c251f1ca36	-0.18145016671367536
200	0x3fb911d02be3520b	0.09792805739864023
201	0x3fc2975f9366c310	0.14524454781851448
202	0xbfb36ca2cb877d2c	-0.07587640255905076
203	0xbfc155f5516690b5	-0.13543573832169434
204	0x3f91c3302d4a8a02	0.01734614635882715
205	0xbfc29688987aa8b0	-0.14521892018575988
206	0xbfafa996eb1e7214	-0.0618407403955851
207	0x3fbbdb9a2d2c4bd6	0.10881961443764906
208	0x3fb0c643287dec5f	0.0655252431733273
209	0xbfc8c840c4de599e	-0.19361123669359598
210	0xbfb1fb6ac69b2461	-0.07024257038860206
211	0xbf530d424292582a	-0.001162829119754525
212	0xbfc86378520a9bd3	-0.19053558355264374
213	0xbfc0b1609c1886d1	-0.13041312810769637
214	0x3fc8df6d10df411c	0.1943184215911139
215	0x3f91345caa79fba2	0.0168013075876804
216	0xbf9564d4485f788d	-0.02089244548539475
217	0x3fc6a67414ae2bc0	0.17695475587637866
218	0x3f7095e83be91d08	0.004049212612307736
219	0xbfb070fc71b83d87	-0.06422403122291175
220	0xbfc86c1195cccb03	-0.1907979947514705
221	0xbfa668dd40c7bfad	-0.043768800885913485
222	0x3f923cdc3604d506	0.017810288235712533
223	0xbfc6ed1ce17c9e18	-0.17911110887620008
224	0x3faf5bc548798d21	0.06124702939703242
225	0xbf85f6cb98e97990	-0.010724630931858298
226	0x3fae1d4769033e4c	0.05881713063137947
227	0x3fc25ab226e8d733	0.14339281940345358
228	0x3fb49cb8b4da244e	0.08051638045630335
229	0xbfc46dcb8eeca00b	-0.15960068205572528
230	0x3f9569d6e2b59a84	0.020911557757609348
231	0x3fc3ee3db0c98085	0.15570803768332922
232	0x3fb0f11967a56af5	0.0661788824121848
233	0x3fa4a1bbf4c57078	0.04029643404894129
234	0xbfbbec6e2e4b5523	-0.10907639150839947
235	0x3fab07dd11b2c82a	0.05279436913532749
236	0xbfade0d053ee06a8	-0.058355818028770046
237	0x3f8198aa1efc213c	0.008591965742667733
238	0x3f801bafd48f88b0	0.007865308451020375
239	0xbfc77adca505b085	-0.18343694741941277
240	0x3fc0ae45ca66139d	0.13031837828398532
241	0xbf9b83aeb230c122	-0.02686951601589372
242	0xbfa505c5997a1d3b	-0.041059660897241966
243	0x3fa67fc503b563aa	0.0439435545947114
244	0x3f90425a2027d9c1	0.015878112995744823
245	0xbfb548049d42f681	-0.08313015784639256
246	0xbfc312bea191edcb	-0.149009541408175
247	0xbfa55e244aa26082	-0.041733869658117775
248	0xbfa865e3a889ba86	-0.04765235359524404
249	0xbfc5462046ef332d	-0.16620257819740783
250	0x3fc85ce70e954694	0.19033516132417516
251	0x3faaacc042c0712c	0.0520992356761972
252	0xbfb51063cf7639d8	-0.08228133978830188
253	0x3fc1b4fa6d23acb5	0.1383355172068598
254	0xbfc4abc71c73b994	-0.16149224175701404
255	0xbfa1ab9e924ec28a	-0.03451247726423386
